{"format": "graph-model", "generatedBy": "2.4.1", "convertedBy": "TensorFlow.js Converter v3.6.0", "signature": {"inputs": {"input1:0": {"name": "input1:0", "dtype": "DT_FLOAT", "tensorShape": {"dim": [{"size": "-1"}, {"size": "128"}, {"size": "128"}, {"size": "3"}]}}}, "outputs": {"Identity_1:0": {"name": "Identity_1:0", "dtype": "DT_FLOAT", "tensorShape": {"dim": [{"size": "-1"}, {"size": "8"}, {"size": "8"}, {"size": "6"}]}}, "Identity:0": {"name": "Identity:0", "dtype": "DT_FLOAT", "tensorShape": {"dim": [{"size": "-1"}, {"size": "8"}, {"size": "8"}, {"size": "24"}]}}, "Identity_3:0": {"name": "Identity_3:0", "dtype": "DT_FLOAT", "tensorShape": {"dim": [{"size": "-1"}, {"size": "4"}, {"size": "4"}, {"size": "18"}]}}, "Identity_2:0": {"name": "Identity_2:0", "dtype": "DT_FLOAT", "tensorShape": {"dim": [{"size": "-1"}, {"size": "4"}, {"size": "4"}, {"size": "72"}]}}}}, "modelTopology": {"node": [{"name": "StatefulPartitionedCall/model1/zero_padding2d_ZeroPadding2D25/Pad/paddings", "op": "Const", "attr": {"dtype": {"type": "DT_INT32"}, "value": {"tensor": {"dtype": "DT_INT32", "tensorShape": {"dim": [{"size": "4"}, {"size": "2"}]}}}}}, {"name": "StatefulPartitionedCall/model1/conv2d_Conv2D39/Conv2D/ReadVariableOp", "op": "Const", "attr": {"value": {"tensor": {"dtype": "DT_FLOAT", "tensorShape": {"dim": [{"size": "3"}, {"size": "3"}, {"size": "56"}, {"size": "24"}]}}}, "dtype": {"type": "DT_FLOAT"}}}, {"name": "StatefulPartitionedCall/model1/zero_padding2d_ZeroPadding2D26/Pad/paddings", "op": "Const", "attr": {"value": {"tensor": {"dtype": "DT_INT32", "tensorShape": {"dim": [{"size": "4"}, {"size": "2"}]}}}, "dtype": {"type": "DT_INT32"}}}, {"name": "StatefulPartitionedCall/model1/conv2d_Conv2D40/Conv2D/ReadVariableOp", "op": "Const", "attr": {"value": {"tensor": {"dtype": "DT_FLOAT", "tensorShape": {"dim": [{"size": "3"}, {"size": "3"}, {"size": "56"}, {"size": "6"}]}}}, "dtype": {"type": "DT_FLOAT"}}}, {"name": "StatefulPartitionedCall/model1/conv2d_Conv2D40/BiasAdd/ReadVariableOp", "op": "Const", "attr": {"value": {"tensor": {"dtype": "DT_FLOAT", "tensorShape": {"dim": [{"size": "6"}]}}}, "dtype": {"type": "DT_FLOAT"}}}, {"name": "StatefulPartitionedCall/model1/zero_padding2d_ZeroPadding2D27/Pad/paddings", "op": "Const", "attr": {"value": {"tensor": {"dtype": "DT_INT32", "tensorShape": {"dim": [{"size": "4"}, {"size": "2"}]}}}, "dtype": {"type": "DT_INT32"}}}, {"name": "StatefulPartitionedCall/model1/conv2d_Conv2D41/Conv2D/ReadVariableOp", "op": "Const", "attr": {"value": {"tensor": {"dtype": "DT_FLOAT", "tensorShape": {"dim": [{"size": "3"}, {"size": "3"}, {"size": "56"}, {"size": "72"}]}}}, "dtype": {"type": "DT_FLOAT"}}}, {"name": "StatefulPartitionedCall/model1/conv2d_Conv2D41/BiasAdd/ReadVariableOp", "op": "Const", "attr": {"value": {"tensor": {"dtype": "DT_FLOAT", "tensorShape": {"dim": [{"size": "72"}]}}}, "dtype": {"type": "DT_FLOAT"}}}, {"name": "StatefulPartitionedCall/model1/zero_padding2d_ZeroPadding2D23/Pad/paddings", "op": "Const", "attr": {"dtype": {"type": "DT_INT32"}, "value": {"tensor": {"dtype": "DT_INT32", "tensorShape": {"dim": [{"size": "4"}, {"size": "2"}]}}}}}, {"name": "StatefulPartitionedCall/model1/depthwise_conv2d_DepthwiseConv2D22/depthwise/ReadVariableOp", "op": "Const", "attr": {"dtype": {"type": "DT_FLOAT"}, "value": {"tensor": {"dtype": "DT_FLOAT", "tensorShape": {"dim": [{"size": "3"}, {"size": "3"}, {"size": "56"}, {"size": "1"}]}}}}}, {"name": "StatefulPartitionedCall/model1/depthwise_conv2d_DepthwiseConv2D22/BiasAdd/ReadVariableOp", "op": "Const", "attr": {"value": {"tensor": {"dtype": "DT_FLOAT", "tensorShape": {"dim": [{"size": "56"}]}}}, "dtype": {"type": "DT_FLOAT"}}}, {"name": "StatefulPartitionedCall/model1/conv2d_Conv2D36/Conv2D/ReadVariableOp", "op": "Const", "attr": {"dtype": {"type": "DT_FLOAT"}, "value": {"tensor": {"dtype": "DT_FLOAT", "tensorShape": {"dim": [{"size": "1"}, {"size": "1"}, {"size": "56"}, {"size": "16"}]}}}}}, {"name": "StatefulPartitionedCall/model1/conv2d_Conv2D36/BiasAdd/ReadVariableOp", "op": "Const", "attr": {"dtype": {"type": "DT_FLOAT"}, "value": {"tensor": {"dtype": "DT_FLOAT", "tensorShape": {"dim": [{"size": "16"}]}}}}}, {"name": "StatefulPartitionedCall/model1/zero_padding2d_ZeroPadding2D24/Pad/paddings", "op": "Const", "attr": {"dtype": {"type": "DT_INT32"}, "value": {"tensor": {"dtype": "DT_INT32", "tensorShape": {"dim": [{"size": "4"}, {"size": "2"}]}}}}}, {"name": "StatefulPartitionedCall/model1/depthwise_conv2d_DepthwiseConv2D23/depthwise/ReadVariableOp", "op": "Const", "attr": {"value": {"tensor": {"dtype": "DT_FLOAT", "tensorShape": {"dim": [{"size": "3"}, {"size": "3"}, {"size": "16"}, {"size": "1"}]}}}, "dtype": {"type": "DT_FLOAT"}}}, {"name": "StatefulPartitionedCall/model1/depthwise_conv2d_DepthwiseConv2D23/BiasAdd/ReadVariableOp", "op": "Const", "attr": {"value": {"tensor": {"dtype": "DT_FLOAT", "tensorShape": {"dim": [{"size": "16"}]}}}, "dtype": {"type": "DT_FLOAT"}}}, {"name": "StatefulPartitionedCall/model1/conv2d_Conv2D37/Conv2D/ReadVariableOp", "op": "Const", "attr": {"value": {"tensor": {"dtype": "DT_FLOAT", "tensorShape": {"dim": [{"size": "1"}, {"size": "1"}, {"size": "16"}, {"size": "56"}]}}}, "dtype": {"type": "DT_FLOAT"}}}, {"name": "StatefulPartitionedCall/model1/conv2d_Conv2D37/BiasAdd/ReadVariableOp", "op": "Const", "attr": {"dtype": {"type": "DT_FLOAT"}, "value": {"tensor": {"dtype": "DT_FLOAT", "tensorShape": {"dim": [{"size": "56"}]}}}}}, {"name": "StatefulPartitionedCall/model1/zero_padding2d_ZeroPadding2D21/Pad/paddings", "op": "Const", "attr": {"dtype": {"type": "DT_INT32"}, "value": {"tensor": {"dtype": "DT_INT32", "tensorShape": {"dim": [{"size": "4"}, {"size": "2"}]}}}}}, {"name": "StatefulPartitionedCall/model1/depthwise_conv2d_DepthwiseConv2D20/depthwise/ReadVariableOp", "op": "Const", "attr": {"dtype": {"type": "DT_FLOAT"}, "value": {"tensor": {"dtype": "DT_FLOAT", "tensorShape": {"dim": [{"size": "3"}, {"size": "3"}, {"size": "56"}, {"size": "1"}]}}}}}, {"name": "StatefulPartitionedCall/model1/depthwise_conv2d_DepthwiseConv2D20/BiasAdd/ReadVariableOp", "op": "Const", "attr": {"value": {"tensor": {"dtype": "DT_FLOAT", "tensorShape": {"dim": [{"size": "56"}]}}}, "dtype": {"type": "DT_FLOAT"}}}, {"name": "StatefulPartitionedCall/model1/conv2d_Conv2D33/Conv2D/ReadVariableOp", "op": "Const", "attr": {"dtype": {"type": "DT_FLOAT"}, "value": {"tensor": {"dtype": "DT_FLOAT", "tensorShape": {"dim": [{"size": "1"}, {"size": "1"}, {"size": "56"}, {"size": "16"}]}}}}}, {"name": "StatefulPartitionedCall/model1/conv2d_Conv2D33/BiasAdd/ReadVariableOp", "op": "Const", "attr": {"dtype": {"type": "DT_FLOAT"}, "value": {"tensor": {"dtype": "DT_FLOAT", "tensorShape": {"dim": [{"size": "16"}]}}}}}, {"name": "StatefulPartitionedCall/model1/zero_padding2d_ZeroPadding2D22/Pad/paddings", "op": "Const", "attr": {"dtype": {"type": "DT_INT32"}, "value": {"tensor": {"dtype": "DT_INT32", "tensorShape": {"dim": [{"size": "4"}, {"size": "2"}]}}}}}, {"name": "StatefulPartitionedCall/model1/depthwise_conv2d_DepthwiseConv2D21/depthwise/ReadVariableOp", "op": "Const", "attr": {"dtype": {"type": "DT_FLOAT"}, "value": {"tensor": {"dtype": "DT_FLOAT", "tensorShape": {"dim": [{"size": "3"}, {"size": "3"}, {"size": "16"}, {"size": "1"}]}}}}}, {"name": "StatefulPartitionedCall/model1/depthwise_conv2d_DepthwiseConv2D21/BiasAdd/ReadVariableOp", "op": "Const", "attr": {"dtype": {"type": "DT_FLOAT"}, "value": {"tensor": {"dtype": "DT_FLOAT", "tensorShape": {"dim": [{"size": "16"}]}}}}}, {"name": "StatefulPartitionedCall/model1/conv2d_Conv2D34/Conv2D/ReadVariableOp", "op": "Const", "attr": {"dtype": {"type": "DT_FLOAT"}, "value": {"tensor": {"dtype": "DT_FLOAT", "tensorShape": {"dim": [{"size": "1"}, {"size": "1"}, {"size": "16"}, {"size": "56"}]}}}}}, {"name": "StatefulPartitionedCall/model1/conv2d_Conv2D34/BiasAdd/ReadVariableOp", "op": "Const", "attr": {"dtype": {"type": "DT_FLOAT"}, "value": {"tensor": {"dtype": "DT_FLOAT", "tensorShape": {"dim": [{"size": "56"}]}}}}}, {"name": "StatefulPartitionedCall/model1/zero_padding2d_ZeroPadding2D19/Pad/paddings", "op": "Const", "attr": {"dtype": {"type": "DT_INT32"}, "value": {"tensor": {"dtype": "DT_INT32", "tensorShape": {"dim": [{"size": "4"}, {"size": "2"}]}}}}}, {"name": "StatefulPartitionedCall/model1/depthwise_conv2d_DepthwiseConv2D18/depthwise/ReadVariableOp", "op": "Const", "attr": {"value": {"tensor": {"dtype": "DT_FLOAT", "tensorShape": {"dim": [{"size": "3"}, {"size": "3"}, {"size": "56"}, {"size": "1"}]}}}, "dtype": {"type": "DT_FLOAT"}}}, {"name": "StatefulPartitionedCall/model1/depthwise_conv2d_DepthwiseConv2D18/BiasAdd/ReadVariableOp", "op": "Const", "attr": {"dtype": {"type": "DT_FLOAT"}, "value": {"tensor": {"dtype": "DT_FLOAT", "tensorShape": {"dim": [{"size": "56"}]}}}}}, {"name": "StatefulPartitionedCall/model1/conv2d_Conv2D30/Conv2D/ReadVariableOp", "op": "Const", "attr": {"dtype": {"type": "DT_FLOAT"}, "value": {"tensor": {"dtype": "DT_FLOAT", "tensorShape": {"dim": [{"size": "1"}, {"size": "1"}, {"size": "56"}, {"size": "16"}]}}}}}, {"name": "StatefulPartitionedCall/model1/conv2d_Conv2D30/BiasAdd/ReadVariableOp", "op": "Const", "attr": {"value": {"tensor": {"dtype": "DT_FLOAT", "tensorShape": {"dim": [{"size": "16"}]}}}, "dtype": {"type": "DT_FLOAT"}}}, {"name": "StatefulPartitionedCall/model1/zero_padding2d_ZeroPadding2D20/Pad/paddings", "op": "Const", "attr": {"value": {"tensor": {"dtype": "DT_INT32", "tensorShape": {"dim": [{"size": "4"}, {"size": "2"}]}}}, "dtype": {"type": "DT_INT32"}}}, {"name": "StatefulPartitionedCall/model1/depthwise_conv2d_DepthwiseConv2D19/depthwise/ReadVariableOp", "op": "Const", "attr": {"dtype": {"type": "DT_FLOAT"}, "value": {"tensor": {"dtype": "DT_FLOAT", "tensorShape": {"dim": [{"size": "3"}, {"size": "3"}, {"size": "16"}, {"size": "1"}]}}}}}, {"name": "StatefulPartitionedCall/model1/depthwise_conv2d_DepthwiseConv2D19/BiasAdd/ReadVariableOp", "op": "Const", "attr": {"value": {"tensor": {"dtype": "DT_FLOAT", "tensorShape": {"dim": [{"size": "16"}]}}}, "dtype": {"type": "DT_FLOAT"}}}, {"name": "StatefulPartitionedCall/model1/conv2d_Conv2D31/Conv2D/ReadVariableOp", "op": "Const", "attr": {"dtype": {"type": "DT_FLOAT"}, "value": {"tensor": {"dtype": "DT_FLOAT", "tensorShape": {"dim": [{"size": "1"}, {"size": "1"}, {"size": "16"}, {"size": "56"}]}}}}}, {"name": "StatefulPartitionedCall/model1/conv2d_Conv2D31/BiasAdd/ReadVariableOp", "op": "Const", "attr": {"value": {"tensor": {"dtype": "DT_FLOAT", "tensorShape": {"dim": [{"size": "56"}]}}}, "dtype": {"type": "DT_FLOAT"}}}, {"name": "StatefulPartitionedCall/model1/zero_padding2d_ZeroPadding2D17/Pad/paddings", "op": "Const", "attr": {"value": {"tensor": {"dtype": "DT_INT32", "tensorShape": {"dim": [{"size": "4"}, {"size": "2"}]}}}, "dtype": {"type": "DT_INT32"}}}, {"name": "StatefulPartitionedCall/model1/depthwise_conv2d_DepthwiseConv2D16/depthwise/ReadVariableOp", "op": "Const", "attr": {"value": {"tensor": {"dtype": "DT_FLOAT", "tensorShape": {"dim": [{"size": "3"}, {"size": "3"}, {"size": "56"}, {"size": "1"}]}}}, "dtype": {"type": "DT_FLOAT"}}}, {"name": "StatefulPartitionedCall/model1/depthwise_conv2d_DepthwiseConv2D16/BiasAdd/ReadVariableOp", "op": "Const", "attr": {"value": {"tensor": {"dtype": "DT_FLOAT", "tensorShape": {"dim": [{"size": "56"}]}}}, "dtype": {"type": "DT_FLOAT"}}}, {"name": "StatefulPartitionedCall/model1/conv2d_Conv2D27/Conv2D/ReadVariableOp", "op": "Const", "attr": {"value": {"tensor": {"dtype": "DT_FLOAT", "tensorShape": {"dim": [{"size": "1"}, {"size": "1"}, {"size": "56"}, {"size": "16"}]}}}, "dtype": {"type": "DT_FLOAT"}}}, {"name": "StatefulPartitionedCall/model1/conv2d_Conv2D27/BiasAdd/ReadVariableOp", "op": "Const", "attr": {"dtype": {"type": "DT_FLOAT"}, "value": {"tensor": {"dtype": "DT_FLOAT", "tensorShape": {"dim": [{"size": "16"}]}}}}}, {"name": "StatefulPartitionedCall/model1/zero_padding2d_ZeroPadding2D18/Pad/paddings", "op": "Const", "attr": {"dtype": {"type": "DT_INT32"}, "value": {"tensor": {"dtype": "DT_INT32", "tensorShape": {"dim": [{"size": "4"}, {"size": "2"}]}}}}}, {"name": "StatefulPartitionedCall/model1/depthwise_conv2d_DepthwiseConv2D17/depthwise/ReadVariableOp", "op": "Const", "attr": {"value": {"tensor": {"dtype": "DT_FLOAT", "tensorShape": {"dim": [{"size": "3"}, {"size": "3"}, {"size": "16"}, {"size": "1"}]}}}, "dtype": {"type": "DT_FLOAT"}}}, {"name": "StatefulPartitionedCall/model1/depthwise_conv2d_DepthwiseConv2D17/BiasAdd/ReadVariableOp", "op": "Const", "attr": {"dtype": {"type": "DT_FLOAT"}, "value": {"tensor": {"dtype": "DT_FLOAT", "tensorShape": {"dim": [{"size": "16"}]}}}}}, {"name": "StatefulPartitionedCall/model1/conv2d_Conv2D28/Conv2D/ReadVariableOp", "op": "Const", "attr": {"value": {"tensor": {"dtype": "DT_FLOAT", "tensorShape": {"dim": [{"size": "1"}, {"size": "1"}, {"size": "16"}, {"size": "56"}]}}}, "dtype": {"type": "DT_FLOAT"}}}, {"name": "StatefulPartitionedCall/model1/conv2d_Conv2D28/BiasAdd/ReadVariableOp", "op": "Const", "attr": {"value": {"tensor": {"dtype": "DT_FLOAT", "tensorShape": {"dim": [{"size": "56"}]}}}, "dtype": {"type": "DT_FLOAT"}}}, {"name": "StatefulPartitionedCall/model1/zero_padding2d_ZeroPadding2D15/Pad/paddings", "op": "Const", "attr": {"value": {"tensor": {"dtype": "DT_INT32", "tensorShape": {"dim": [{"size": "4"}, {"size": "2"}]}}}, "dtype": {"type": "DT_INT32"}}}, {"name": "StatefulPartitionedCall/model1/depthwise_conv2d_DepthwiseConv2D14/depthwise/ReadVariableOp", "op": "Const", "attr": {"dtype": {"type": "DT_FLOAT"}, "value": {"tensor": {"dtype": "DT_FLOAT", "tensorShape": {"dim": [{"size": "3"}, {"size": "3"}, {"size": "56"}, {"size": "1"}]}}}}}, {"name": "StatefulPartitionedCall/model1/depthwise_conv2d_DepthwiseConv2D14/BiasAdd/ReadVariableOp", "op": "Const", "attr": {"dtype": {"type": "DT_FLOAT"}, "value": {"tensor": {"dtype": "DT_FLOAT", "tensorShape": {"dim": [{"size": "56"}]}}}}}, {"name": "StatefulPartitionedCall/model1/conv2d_Conv2D24/Conv2D/ReadVariableOp", "op": "Const", "attr": {"dtype": {"type": "DT_FLOAT"}, "value": {"tensor": {"dtype": "DT_FLOAT", "tensorShape": {"dim": [{"size": "1"}, {"size": "1"}, {"size": "56"}, {"size": "16"}]}}}}}, {"name": "StatefulPartitionedCall/model1/conv2d_Conv2D24/BiasAdd/ReadVariableOp", "op": "Const", "attr": {"dtype": {"type": "DT_FLOAT"}, "value": {"tensor": {"dtype": "DT_FLOAT", "tensorShape": {"dim": [{"size": "16"}]}}}}}, {"name": "StatefulPartitionedCall/model1/zero_padding2d_ZeroPadding2D16/Pad/paddings", "op": "Const", "attr": {"dtype": {"type": "DT_INT32"}, "value": {"tensor": {"dtype": "DT_INT32", "tensorShape": {"dim": [{"size": "4"}, {"size": "2"}]}}}}}, {"name": "StatefulPartitionedCall/model1/depthwise_conv2d_DepthwiseConv2D15/depthwise/ReadVariableOp", "op": "Const", "attr": {"dtype": {"type": "DT_FLOAT"}, "value": {"tensor": {"dtype": "DT_FLOAT", "tensorShape": {"dim": [{"size": "3"}, {"size": "3"}, {"size": "16"}, {"size": "1"}]}}}}}, {"name": "StatefulPartitionedCall/model1/depthwise_conv2d_DepthwiseConv2D15/BiasAdd/ReadVariableOp", "op": "Const", "attr": {"value": {"tensor": {"dtype": "DT_FLOAT", "tensorShape": {"dim": [{"size": "16"}]}}}, "dtype": {"type": "DT_FLOAT"}}}, {"name": "StatefulPartitionedCall/model1/conv2d_Conv2D25/Conv2D/ReadVariableOp", "op": "Const", "attr": {"value": {"tensor": {"dtype": "DT_FLOAT", "tensorShape": {"dim": [{"size": "1"}, {"size": "1"}, {"size": "16"}, {"size": "56"}]}}}, "dtype": {"type": "DT_FLOAT"}}}, {"name": "StatefulPartitionedCall/model1/conv2d_Conv2D25/BiasAdd/ReadVariableOp", "op": "Const", "attr": {"dtype": {"type": "DT_FLOAT"}, "value": {"tensor": {"dtype": "DT_FLOAT", "tensorShape": {"dim": [{"size": "56"}]}}}}}, {"name": "StatefulPartitionedCall/model1/zero_padding2d_ZeroPadding2D13/Pad/paddings", "op": "Const", "attr": {"dtype": {"type": "DT_INT32"}, "value": {"tensor": {"dtype": "DT_INT32", "tensorShape": {"dim": [{"size": "4"}, {"size": "2"}]}}}}}, {"name": "StatefulPartitionedCall/model1/depthwise_conv2d_DepthwiseConv2D12/depthwise/ReadVariableOp", "op": "Const", "attr": {"dtype": {"type": "DT_FLOAT"}, "value": {"tensor": {"dtype": "DT_FLOAT", "tensorShape": {"dim": [{"size": "3"}, {"size": "3"}, {"size": "56"}, {"size": "1"}]}}}}}, {"name": "StatefulPartitionedCall/model1/depthwise_conv2d_DepthwiseConv2D12/BiasAdd/ReadVariableOp", "op": "Const", "attr": {"dtype": {"type": "DT_FLOAT"}, "value": {"tensor": {"dtype": "DT_FLOAT", "tensorShape": {"dim": [{"size": "56"}]}}}}}, {"name": "StatefulPartitionedCall/model1/conv2d_Conv2D21/Conv2D/ReadVariableOp", "op": "Const", "attr": {"dtype": {"type": "DT_FLOAT"}, "value": {"tensor": {"dtype": "DT_FLOAT", "tensorShape": {"dim": [{"size": "1"}, {"size": "1"}, {"size": "56"}, {"size": "16"}]}}}}}, {"name": "StatefulPartitionedCall/model1/conv2d_Conv2D21/BiasAdd/ReadVariableOp", "op": "Const", "attr": {"dtype": {"type": "DT_FLOAT"}, "value": {"tensor": {"dtype": "DT_FLOAT", "tensorShape": {"dim": [{"size": "16"}]}}}}}, {"name": "StatefulPartitionedCall/model1/zero_padding2d_ZeroPadding2D14/Pad/paddings", "op": "Const", "attr": {"dtype": {"type": "DT_INT32"}, "value": {"tensor": {"dtype": "DT_INT32", "tensorShape": {"dim": [{"size": "4"}, {"size": "2"}]}}}}}, {"name": "StatefulPartitionedCall/model1/depthwise_conv2d_DepthwiseConv2D13/depthwise/ReadVariableOp", "op": "Const", "attr": {"value": {"tensor": {"dtype": "DT_FLOAT", "tensorShape": {"dim": [{"size": "3"}, {"size": "3"}, {"size": "16"}, {"size": "1"}]}}}, "dtype": {"type": "DT_FLOAT"}}}, {"name": "StatefulPartitionedCall/model1/depthwise_conv2d_DepthwiseConv2D13/BiasAdd/ReadVariableOp", "op": "Const", "attr": {"dtype": {"type": "DT_FLOAT"}, "value": {"tensor": {"dtype": "DT_FLOAT", "tensorShape": {"dim": [{"size": "16"}]}}}}}, {"name": "StatefulPartitionedCall/model1/conv2d_Conv2D22/Conv2D/ReadVariableOp", "op": "Const", "attr": {"dtype": {"type": "DT_FLOAT"}, "value": {"tensor": {"dtype": "DT_FLOAT", "tensorShape": {"dim": [{"size": "1"}, {"size": "1"}, {"size": "16"}, {"size": "56"}]}}}}}, {"name": "StatefulPartitionedCall/model1/conv2d_Conv2D22/BiasAdd/ReadVariableOp", "op": "Const", "attr": {"dtype": {"type": "DT_FLOAT"}, "value": {"tensor": {"dtype": "DT_FLOAT", "tensorShape": {"dim": [{"size": "56"}]}}}}}, {"name": "StatefulPartitionedCall/model1/zero_padding2d_ZeroPadding2D11/Pad/paddings", "op": "Const", "attr": {"value": {"tensor": {"dtype": "DT_INT32", "tensorShape": {"dim": [{"size": "4"}, {"size": "2"}]}}}, "dtype": {"type": "DT_INT32"}}}, {"name": "StatefulPartitionedCall/model1/depthwise_conv2d_DepthwiseConv2D10/depthwise/ReadVariableOp", "op": "Const", "attr": {"dtype": {"type": "DT_FLOAT"}, "value": {"tensor": {"dtype": "DT_FLOAT", "tensorShape": {"dim": [{"size": "3"}, {"size": "3"}, {"size": "56"}, {"size": "1"}]}}}}}, {"name": "StatefulPartitionedCall/model1/depthwise_conv2d_DepthwiseConv2D10/BiasAdd/ReadVariableOp", "op": "Const", "attr": {"dtype": {"type": "DT_FLOAT"}, "value": {"tensor": {"dtype": "DT_FLOAT", "tensorShape": {"dim": [{"size": "56"}]}}}}}, {"name": "StatefulPartitionedCall/model1/conv2d_Conv2D18/Conv2D/ReadVariableOp", "op": "Const", "attr": {"value": {"tensor": {"dtype": "DT_FLOAT", "tensorShape": {"dim": [{"size": "1"}, {"size": "1"}, {"size": "56"}, {"size": "16"}]}}}, "dtype": {"type": "DT_FLOAT"}}}, {"name": "StatefulPartitionedCall/model1/conv2d_Conv2D18/BiasAdd/ReadVariableOp", "op": "Const", "attr": {"value": {"tensor": {"dtype": "DT_FLOAT", "tensorShape": {"dim": [{"size": "16"}]}}}, "dtype": {"type": "DT_FLOAT"}}}, {"name": "StatefulPartitionedCall/model1/zero_padding2d_ZeroPadding2D12/Pad/paddings", "op": "Const", "attr": {"value": {"tensor": {"dtype": "DT_INT32", "tensorShape": {"dim": [{"size": "4"}, {"size": "2"}]}}}, "dtype": {"type": "DT_INT32"}}}, {"name": "StatefulPartitionedCall/model1/depthwise_conv2d_DepthwiseConv2D11/depthwise/ReadVariableOp", "op": "Const", "attr": {"value": {"tensor": {"dtype": "DT_FLOAT", "tensorShape": {"dim": [{"size": "3"}, {"size": "3"}, {"size": "16"}, {"size": "1"}]}}}, "dtype": {"type": "DT_FLOAT"}}}, {"name": "StatefulPartitionedCall/model1/depthwise_conv2d_DepthwiseConv2D11/BiasAdd/ReadVariableOp", "op": "Const", "attr": {"value": {"tensor": {"dtype": "DT_FLOAT", "tensorShape": {"dim": [{"size": "16"}]}}}, "dtype": {"type": "DT_FLOAT"}}}, {"name": "StatefulPartitionedCall/model1/conv2d_Conv2D19/Conv2D/ReadVariableOp", "op": "Const", "attr": {"dtype": {"type": "DT_FLOAT"}, "value": {"tensor": {"dtype": "DT_FLOAT", "tensorShape": {"dim": [{"size": "1"}, {"size": "1"}, {"size": "16"}, {"size": "56"}]}}}}}, {"name": "StatefulPartitionedCall/model1/conv2d_Conv2D19/BiasAdd/ReadVariableOp", "op": "Const", "attr": {"value": {"tensor": {"dtype": "DT_FLOAT", "tensorShape": {"dim": [{"size": "56"}]}}}, "dtype": {"type": "DT_FLOAT"}}}, {"name": "StatefulPartitionedCall/model1/zero_padding2d_ZeroPadding2D9/Pad/paddings", "op": "Const", "attr": {"dtype": {"type": "DT_INT32"}, "value": {"tensor": {"dtype": "DT_INT32", "tensorShape": {"dim": [{"size": "4"}, {"size": "2"}]}}}}}, {"name": "StatefulPartitionedCall/model1/depthwise_conv2d_DepthwiseConv2D8/depthwise/ReadVariableOp", "op": "Const", "attr": {"dtype": {"type": "DT_FLOAT"}, "value": {"tensor": {"dtype": "DT_FLOAT", "tensorShape": {"dim": [{"size": "3"}, {"size": "3"}, {"size": "56"}, {"size": "1"}]}}}}}, {"name": "StatefulPartitionedCall/model1/depthwise_conv2d_DepthwiseConv2D8/BiasAdd/ReadVariableOp", "op": "Const", "attr": {"dtype": {"type": "DT_FLOAT"}, "value": {"tensor": {"dtype": "DT_FLOAT", "tensorShape": {"dim": [{"size": "56"}]}}}}}, {"name": "StatefulPartitionedCall/model1/conv2d_Conv2D15/Conv2D/ReadVariableOp", "op": "Const", "attr": {"value": {"tensor": {"dtype": "DT_FLOAT", "tensorShape": {"dim": [{"size": "1"}, {"size": "1"}, {"size": "56"}, {"size": "16"}]}}}, "dtype": {"type": "DT_FLOAT"}}}, {"name": "StatefulPartitionedCall/model1/conv2d_Conv2D15/BiasAdd/ReadVariableOp", "op": "Const", "attr": {"value": {"tensor": {"dtype": "DT_FLOAT", "tensorShape": {"dim": [{"size": "16"}]}}}, "dtype": {"type": "DT_FLOAT"}}}, {"name": "StatefulPartitionedCall/model1/zero_padding2d_ZeroPadding2D10/Pad/paddings", "op": "Const", "attr": {"value": {"tensor": {"dtype": "DT_INT32", "tensorShape": {"dim": [{"size": "4"}, {"size": "2"}]}}}, "dtype": {"type": "DT_INT32"}}}, {"name": "StatefulPartitionedCall/model1/depthwise_conv2d_DepthwiseConv2D9/depthwise/ReadVariableOp", "op": "Const", "attr": {"value": {"tensor": {"dtype": "DT_FLOAT", "tensorShape": {"dim": [{"size": "3"}, {"size": "3"}, {"size": "16"}, {"size": "1"}]}}}, "dtype": {"type": "DT_FLOAT"}}}, {"name": "StatefulPartitionedCall/model1/depthwise_conv2d_DepthwiseConv2D9/BiasAdd/ReadVariableOp", "op": "Const", "attr": {"value": {"tensor": {"dtype": "DT_FLOAT", "tensorShape": {"dim": [{"size": "16"}]}}}, "dtype": {"type": "DT_FLOAT"}}}, {"name": "StatefulPartitionedCall/model1/conv2d_Conv2D16/Conv2D/ReadVariableOp", "op": "Const", "attr": {"dtype": {"type": "DT_FLOAT"}, "value": {"tensor": {"dtype": "DT_FLOAT", "tensorShape": {"dim": [{"size": "1"}, {"size": "1"}, {"size": "16"}, {"size": "56"}]}}}}}, {"name": "StatefulPartitionedCall/model1/conv2d_Conv2D16/BiasAdd/ReadVariableOp", "op": "Const", "attr": {"dtype": {"type": "DT_FLOAT"}, "value": {"tensor": {"dtype": "DT_FLOAT", "tensorShape": {"dim": [{"size": "56"}]}}}}}, {"name": "StatefulPartitionedCall/model1/zero_padding2d_ZeroPadding2D7/Pad/paddings", "op": "Const", "attr": {"dtype": {"type": "DT_INT32"}, "value": {"tensor": {"dtype": "DT_INT32", "tensorShape": {"dim": [{"size": "4"}, {"size": "2"}]}}}}}, {"name": "StatefulPartitionedCall/model1/depthwise_conv2d_DepthwiseConv2D6/depthwise/ReadVariableOp", "op": "Const", "attr": {"dtype": {"type": "DT_FLOAT"}, "value": {"tensor": {"dtype": "DT_FLOAT", "tensorShape": {"dim": [{"size": "3"}, {"size": "3"}, {"size": "38"}, {"size": "1"}]}}}}}, {"name": "StatefulPartitionedCall/model1/depthwise_conv2d_DepthwiseConv2D6/BiasAdd/ReadVariableOp", "op": "Const", "attr": {"value": {"tensor": {"dtype": "DT_FLOAT", "tensorShape": {"dim": [{"size": "38"}]}}}, "dtype": {"type": "DT_FLOAT"}}}, {"name": "StatefulPartitionedCall/model1/conv2d_Conv2D12/Conv2D/ReadVariableOp", "op": "Const", "attr": {"value": {"tensor": {"dtype": "DT_FLOAT", "tensorShape": {"dim": [{"size": "1"}, {"size": "1"}, {"size": "38"}, {"size": "16"}]}}}, "dtype": {"type": "DT_FLOAT"}}}, {"name": "StatefulPartitionedCall/model1/conv2d_Conv2D12/BiasAdd/ReadVariableOp", "op": "Const", "attr": {"value": {"tensor": {"dtype": "DT_FLOAT", "tensorShape": {"dim": [{"size": "16"}]}}}, "dtype": {"type": "DT_FLOAT"}}}, {"name": "StatefulPartitionedCall/model1/zero_padding2d_ZeroPadding2D8/Pad/paddings", "op": "Const", "attr": {"dtype": {"type": "DT_INT32"}, "value": {"tensor": {"dtype": "DT_INT32", "tensorShape": {"dim": [{"size": "4"}, {"size": "2"}]}}}}}, {"name": "StatefulPartitionedCall/model1/depthwise_conv2d_DepthwiseConv2D7/depthwise/ReadVariableOp", "op": "Const", "attr": {"dtype": {"type": "DT_FLOAT"}, "value": {"tensor": {"dtype": "DT_FLOAT", "tensorShape": {"dim": [{"size": "3"}, {"size": "3"}, {"size": "16"}, {"size": "1"}]}}}}}, {"name": "StatefulPartitionedCall/model1/depthwise_conv2d_DepthwiseConv2D7/BiasAdd/ReadVariableOp", "op": "Const", "attr": {"dtype": {"type": "DT_FLOAT"}, "value": {"tensor": {"dtype": "DT_FLOAT", "tensorShape": {"dim": [{"size": "16"}]}}}}}, {"name": "StatefulPartitionedCall/model1/conv2d_Conv2D13/Conv2D/ReadVariableOp", "op": "Const", "attr": {"value": {"tensor": {"dtype": "DT_FLOAT", "tensorShape": {"dim": [{"size": "1"}, {"size": "1"}, {"size": "16"}, {"size": "56"}]}}}, "dtype": {"type": "DT_FLOAT"}}}, {"name": "StatefulPartitionedCall/model1/conv2d_Conv2D13/BiasAdd/ReadVariableOp", "op": "Const", "attr": {"value": {"tensor": {"dtype": "DT_FLOAT", "tensorShape": {"dim": [{"size": "56"}]}}}, "dtype": {"type": "DT_FLOAT"}}}, {"name": "StatefulPartitionedCall/model1/zero_padding2d_ZeroPadding2D6/Pad/paddings", "op": "Const", "attr": {"dtype": {"type": "DT_INT32"}, "value": {"tensor": {"dtype": "DT_INT32", "tensorShape": {"dim": [{"size": "4"}, {"size": "2"}]}}}}}, {"name": "StatefulPartitionedCall/model1/depthwise_conv2d_DepthwiseConv2D5/depthwise/ReadVariableOp", "op": "Const", "attr": {"dtype": {"type": "DT_FLOAT"}, "value": {"tensor": {"dtype": "DT_FLOAT", "tensorShape": {"dim": [{"size": "3"}, {"size": "3"}, {"size": "38"}, {"size": "1"}]}}}}}, {"name": "StatefulPartitionedCall/model1/depthwise_conv2d_DepthwiseConv2D5/BiasAdd/ReadVariableOp", "op": "Const", "attr": {"dtype": {"type": "DT_FLOAT"}, "value": {"tensor": {"dtype": "DT_FLOAT", "tensorShape": {"dim": [{"size": "38"}]}}}}}, {"name": "StatefulPartitionedCall/model1/conv2d_Conv2D10/Conv2D/ReadVariableOp", "op": "Const", "attr": {"dtype": {"type": "DT_FLOAT"}, "value": {"tensor": {"dtype": "DT_FLOAT", "tensorShape": {"dim": [{"size": "1"}, {"size": "1"}, {"size": "38"}, {"size": "38"}]}}}}}, {"name": "StatefulPartitionedCall/model1/conv2d_Conv2D10/BiasAdd/ReadVariableOp", "op": "Const", "attr": {"dtype": {"type": "DT_FLOAT"}, "value": {"tensor": {"dtype": "DT_FLOAT", "tensorShape": {"dim": [{"size": "38"}]}}}}}, {"name": "StatefulPartitionedCall/model1/zero_padding2d_ZeroPadding2D5/Pad/paddings", "op": "Const", "attr": {"value": {"tensor": {"dtype": "DT_INT32", "tensorShape": {"dim": [{"size": "4"}, {"size": "2"}]}}}, "dtype": {"type": "DT_INT32"}}}, {"name": "StatefulPartitionedCall/model1/depthwise_conv2d_DepthwiseConv2D4/depthwise/ReadVariableOp", "op": "Const", "attr": {"value": {"tensor": {"dtype": "DT_FLOAT", "tensorShape": {"dim": [{"size": "3"}, {"size": "3"}, {"size": "38"}, {"size": "1"}]}}}, "dtype": {"type": "DT_FLOAT"}}}, {"name": "StatefulPartitionedCall/model1/depthwise_conv2d_DepthwiseConv2D4/BiasAdd/ReadVariableOp", "op": "Const", "attr": {"dtype": {"type": "DT_FLOAT"}, "value": {"tensor": {"dtype": "DT_FLOAT", "tensorShape": {"dim": [{"size": "38"}]}}}}}, {"name": "StatefulPartitionedCall/model1/conv2d_Conv2D8/Conv2D/ReadVariableOp", "op": "Const", "attr": {"dtype": {"type": "DT_FLOAT"}, "value": {"tensor": {"dtype": "DT_FLOAT", "tensorShape": {"dim": [{"size": "1"}, {"size": "1"}, {"size": "38"}, {"size": "38"}]}}}}}, {"name": "StatefulPartitionedCall/model1/conv2d_Conv2D8/BiasAdd/ReadVariableOp", "op": "Const", "attr": {"dtype": {"type": "DT_FLOAT"}, "value": {"tensor": {"dtype": "DT_FLOAT", "tensorShape": {"dim": [{"size": "38"}]}}}}}, {"name": "StatefulPartitionedCall/model1/zero_padding2d_ZeroPadding2D4/Pad/paddings", "op": "Const", "attr": {"value": {"tensor": {"dtype": "DT_INT32", "tensorShape": {"dim": [{"size": "4"}, {"size": "2"}]}}}, "dtype": {"type": "DT_INT32"}}}, {"name": "StatefulPartitionedCall/model1/depthwise_conv2d_DepthwiseConv2D3/depthwise/ReadVariableOp", "op": "Const", "attr": {"dtype": {"type": "DT_FLOAT"}, "value": {"tensor": {"dtype": "DT_FLOAT", "tensorShape": {"dim": [{"size": "3"}, {"size": "3"}, {"size": "16"}, {"size": "1"}]}}}}}, {"name": "StatefulPartitionedCall/model1/depthwise_conv2d_DepthwiseConv2D3/BiasAdd/ReadVariableOp", "op": "Const", "attr": {"dtype": {"type": "DT_FLOAT"}, "value": {"tensor": {"dtype": "DT_FLOAT", "tensorShape": {"dim": [{"size": "16"}]}}}}}, {"name": "StatefulPartitionedCall/model1/conv2d_Conv2D6/Conv2D/ReadVariableOp", "op": "Const", "attr": {"dtype": {"type": "DT_FLOAT"}, "value": {"tensor": {"dtype": "DT_FLOAT", "tensorShape": {"dim": [{"size": "1"}, {"size": "1"}, {"size": "16"}, {"size": "38"}]}}}}}, {"name": "StatefulPartitionedCall/model1/conv2d_Conv2D6/BiasAdd/ReadVariableOp", "op": "Const", "attr": {"value": {"tensor": {"dtype": "DT_FLOAT", "tensorShape": {"dim": [{"size": "38"}]}}}, "dtype": {"type": "DT_FLOAT"}}}, {"name": "StatefulPartitionedCall/model1/zero_padding2d_ZeroPadding2D3/Pad/paddings", "op": "Const", "attr": {"value": {"tensor": {"dtype": "DT_INT32", "tensorShape": {"dim": [{"size": "4"}, {"size": "2"}]}}}, "dtype": {"type": "DT_INT32"}}}, {"name": "StatefulPartitionedCall/model1/depthwise_conv2d_DepthwiseConv2D2/depthwise/ReadVariableOp", "op": "Const", "attr": {"dtype": {"type": "DT_FLOAT"}, "value": {"tensor": {"dtype": "DT_FLOAT", "tensorShape": {"dim": [{"size": "3"}, {"size": "3"}, {"size": "16"}, {"size": "1"}]}}}}}, {"name": "StatefulPartitionedCall/model1/depthwise_conv2d_DepthwiseConv2D2/BiasAdd/ReadVariableOp", "op": "Const", "attr": {"value": {"tensor": {"dtype": "DT_FLOAT", "tensorShape": {"dim": [{"size": "16"}]}}}, "dtype": {"type": "DT_FLOAT"}}}, {"name": "StatefulPartitionedCall/model1/conv2d_Conv2D4/Conv2D/ReadVariableOp", "op": "Const", "attr": {"value": {"tensor": {"dtype": "DT_FLOAT", "tensorShape": {"dim": [{"size": "1"}, {"size": "1"}, {"size": "16"}, {"size": "16"}]}}}, "dtype": {"type": "DT_FLOAT"}}}, {"name": "StatefulPartitionedCall/model1/conv2d_Conv2D4/BiasAdd/ReadVariableOp", "op": "Const", "attr": {"dtype": {"type": "DT_FLOAT"}, "value": {"tensor": {"dtype": "DT_FLOAT", "tensorShape": {"dim": [{"size": "16"}]}}}}}, {"name": "StatefulPartitionedCall/model1/zero_padding2d_ZeroPadding2D2/Pad/paddings", "op": "Const", "attr": {"value": {"tensor": {"dtype": "DT_INT32", "tensorShape": {"dim": [{"size": "4"}, {"size": "2"}]}}}, "dtype": {"type": "DT_INT32"}}}, {"name": "StatefulPartitionedCall/model1/depthwise_conv2d_DepthwiseConv2D1/depthwise/ReadVariableOp", "op": "Const", "attr": {"value": {"tensor": {"dtype": "DT_FLOAT", "tensorShape": {"dim": [{"size": "3"}, {"size": "3"}, {"size": "16"}, {"size": "1"}]}}}, "dtype": {"type": "DT_FLOAT"}}}, {"name": "StatefulPartitionedCall/model1/depthwise_conv2d_DepthwiseConv2D1/BiasAdd/ReadVariableOp", "op": "Const", "attr": {"value": {"tensor": {"dtype": "DT_FLOAT", "tensorShape": {"dim": [{"size": "16"}]}}}, "dtype": {"type": "DT_FLOAT"}}}, {"name": "StatefulPartitionedCall/model1/conv2d_Conv2D2/Conv2D/ReadVariableOp", "op": "Const", "attr": {"dtype": {"type": "DT_FLOAT"}, "value": {"tensor": {"dtype": "DT_FLOAT", "tensorShape": {"dim": [{"size": "1"}, {"size": "1"}, {"size": "16"}, {"size": "16"}]}}}}}, {"name": "StatefulPartitionedCall/model1/conv2d_Conv2D2/BiasAdd/ReadVariableOp", "op": "Const", "attr": {"value": {"tensor": {"dtype": "DT_FLOAT", "tensorShape": {"dim": [{"size": "16"}]}}}, "dtype": {"type": "DT_FLOAT"}}}, {"name": "StatefulPartitionedCall/model1/zero_padding2d_ZeroPadding2D1/Pad/paddings", "op": "Const", "attr": {"value": {"tensor": {"dtype": "DT_INT32", "tensorShape": {"dim": [{"size": "4"}, {"size": "2"}]}}}, "dtype": {"type": "DT_INT32"}}}, {"name": "StatefulPartitionedCall/model1/conv2d_Conv2D1/Conv2D/ReadVariableOp", "op": "Const", "attr": {"dtype": {"type": "DT_FLOAT"}, "value": {"tensor": {"dtype": "DT_FLOAT", "tensorShape": {"dim": [{"size": "3"}, {"size": "3"}, {"size": "3"}, {"size": "16"}]}}}}}, {"name": "StatefulPartitionedCall/model1/conv2d_Conv2D1/BiasAdd/ReadVariableOp", "op": "Const", "attr": {"dtype": {"type": "DT_FLOAT"}, "value": {"tensor": {"dtype": "DT_FLOAT", "tensorShape": {"dim": [{"size": "16"}]}}}}}, {"name": "StatefulPartitionedCall/model1/conv2d_Conv2D3/Conv2D/ReadVariableOp", "op": "Const", "attr": {"value": {"tensor": {"dtype": "DT_FLOAT", "tensorShape": {"dim": [{"size": "1"}, {"size": "1"}, {"size": "16"}, {"size": "16"}]}}}, "dtype": {"type": "DT_FLOAT"}}}, {"name": "StatefulPartitionedCall/model1/conv2d_Conv2D5/Conv2D/ReadVariableOp", "op": "Const", "attr": {"value": {"tensor": {"dtype": "DT_FLOAT", "tensorShape": {"dim": [{"size": "1"}, {"size": "1"}, {"size": "16"}, {"size": "16"}]}}}, "dtype": {"type": "DT_FLOAT"}}}, {"name": "StatefulPartitionedCall/model1/conv2d_Conv2D7/Conv2D/ReadVariableOp", "op": "Const", "attr": {"value": {"tensor": {"dtype": "DT_FLOAT", "tensorShape": {"dim": [{"size": "1"}, {"size": "1"}, {"size": "16"}, {"size": "38"}]}}}, "dtype": {"type": "DT_FLOAT"}}}, {"name": "StatefulPartitionedCall/model1/conv2d_Conv2D9/Conv2D/ReadVariableOp", "op": "Const", "attr": {"value": {"tensor": {"dtype": "DT_FLOAT", "tensorShape": {"dim": [{"size": "1"}, {"size": "1"}, {"size": "38"}, {"size": "38"}]}}}, "dtype": {"type": "DT_FLOAT"}}}, {"name": "StatefulPartitionedCall/model1/conv2d_Conv2D11/Conv2D/ReadVariableOp", "op": "Const", "attr": {"dtype": {"type": "DT_FLOAT"}, "value": {"tensor": {"dtype": "DT_FLOAT", "tensorShape": {"dim": [{"size": "1"}, {"size": "1"}, {"size": "38"}, {"size": "38"}]}}}}}, {"name": "StatefulPartitionedCall/model1/conv2d_Conv2D14/Conv2D/ReadVariableOp", "op": "Const", "attr": {"dtype": {"type": "DT_FLOAT"}, "value": {"tensor": {"dtype": "DT_FLOAT", "tensorShape": {"dim": [{"size": "1"}, {"size": "1"}, {"size": "38"}, {"size": "56"}]}}}}}, {"name": "StatefulPartitionedCall/model1/conv2d_Conv2D17/Conv2D/ReadVariableOp", "op": "Const", "attr": {"value": {"tensor": {"dtype": "DT_FLOAT", "tensorShape": {"dim": [{"size": "1"}, {"size": "1"}, {"size": "56"}, {"size": "56"}]}}}, "dtype": {"type": "DT_FLOAT"}}}, {"name": "StatefulPartitionedCall/model1/conv2d_Conv2D20/Conv2D/ReadVariableOp", "op": "Const", "attr": {"value": {"tensor": {"dtype": "DT_FLOAT", "tensorShape": {"dim": [{"size": "1"}, {"size": "1"}, {"size": "56"}, {"size": "56"}]}}}, "dtype": {"type": "DT_FLOAT"}}}, {"name": "StatefulPartitionedCall/model1/conv2d_Conv2D23/Conv2D/ReadVariableOp", "op": "Const", "attr": {"dtype": {"type": "DT_FLOAT"}, "value": {"tensor": {"dtype": "DT_FLOAT", "tensorShape": {"dim": [{"size": "1"}, {"size": "1"}, {"size": "56"}, {"size": "56"}]}}}}}, {"name": "StatefulPartitionedCall/model1/conv2d_Conv2D26/Conv2D/ReadVariableOp", "op": "Const", "attr": {"dtype": {"type": "DT_FLOAT"}, "value": {"tensor": {"dtype": "DT_FLOAT", "tensorShape": {"dim": [{"size": "1"}, {"size": "1"}, {"size": "56"}, {"size": "56"}]}}}}}, {"name": "StatefulPartitionedCall/model1/conv2d_Conv2D29/Conv2D/ReadVariableOp", "op": "Const", "attr": {"dtype": {"type": "DT_FLOAT"}, "value": {"tensor": {"dtype": "DT_FLOAT", "tensorShape": {"dim": [{"size": "1"}, {"size": "1"}, {"size": "56"}, {"size": "56"}]}}}}}, {"name": "StatefulPartitionedCall/model1/conv2d_Conv2D32/Conv2D/ReadVariableOp", "op": "Const", "attr": {"dtype": {"type": "DT_FLOAT"}, "value": {"tensor": {"dtype": "DT_FLOAT", "tensorShape": {"dim": [{"size": "1"}, {"size": "1"}, {"size": "56"}, {"size": "56"}]}}}}}, {"name": "StatefulPartitionedCall/model1/conv2d_Conv2D35/Conv2D/ReadVariableOp", "op": "Const", "attr": {"value": {"tensor": {"dtype": "DT_FLOAT", "tensorShape": {"dim": [{"size": "1"}, {"size": "1"}, {"size": "56"}, {"size": "56"}]}}}, "dtype": {"type": "DT_FLOAT"}}}, {"name": "StatefulPartitionedCall/model1/conv2d_Conv2D38/Conv2D/ReadVariableOp", "op": "Const", "attr": {"dtype": {"type": "DT_FLOAT"}, "value": {"tensor": {"dtype": "DT_FLOAT", "tensorShape": {"dim": [{"size": "1"}, {"size": "1"}, {"size": "56"}, {"size": "56"}]}}}}}, {"name": "StatefulPartitionedCall/model1/zero_padding2d_ZeroPadding2D28/Pad/paddings", "op": "Const", "attr": {"dtype": {"type": "DT_INT32"}, "value": {"tensor": {"dtype": "DT_INT32", "tensorShape": {"dim": [{"size": "4"}, {"size": "2"}]}}}}}, {"name": "StatefulPartitionedCall/model1/conv2d_Conv2D42/Conv2D/ReadVariableOp", "op": "Const", "attr": {"value": {"tensor": {"dtype": "DT_FLOAT", "tensorShape": {"dim": [{"size": "3"}, {"size": "3"}, {"size": "56"}, {"size": "18"}]}}}, "dtype": {"type": "DT_FLOAT"}}}, {"name": "StatefulPartitionedCall/model1/conv2d_Conv2D42/BiasAdd/ReadVariableOp", "op": "Const", "attr": {"value": {"tensor": {"dtype": "DT_FLOAT", "tensorShape": {"dim": [{"size": "18"}]}}}, "dtype": {"type": "DT_FLOAT"}}}, {"name": "input1", "op": "Placeholder", "attr": {"dtype": {"type": "DT_FLOAT"}, "shape": {"shape": {"dim": [{"size": "-1"}, {"size": "128"}, {"size": "128"}, {"size": "3"}]}}}}, {"name": "StatefulPartitionedCall/model1/zero_padding2d_ZeroPadding2D1/Pad", "op": "Pad", "input": ["input1", "StatefulPartitionedCall/model1/zero_padding2d_ZeroPadding2D1/Pad/paddings"], "attr": {"Tpaddings": {"type": "DT_INT32"}, "T": {"type": "DT_FLOAT"}}}, {"name": "StatefulPartitionedCall/model1/re_lu_ReLU1/Relu", "op": "_FusedConv2D", "input": ["StatefulPartitionedCall/model1/zero_padding2d_ZeroPadding2D1/Pad", "StatefulPartitionedCall/model1/conv2d_Conv2D1/Conv2D/ReadVariableOp", "StatefulPartitionedCall/model1/conv2d_Conv2D1/BiasAdd/ReadVariableOp"], "device": "/device:CPU:0", "attr": {"num_args": {"i": "1"}, "strides": {"list": {"i": ["1", "2", "2", "1"]}}, "epsilon": {"f": 0.0}, "T": {"type": "DT_FLOAT"}, "explicit_paddings": {"list": {}}, "fused_ops": {"list": {"s": ["Qmlhc0FkZA==", "UmVsdQ=="]}}, "padding": {"s": "VkFMSUQ="}, "data_format": {"s": "TkhXQw=="}, "use_cudnn_on_gpu": {"b": true}, "dilations": {"list": {"i": ["1", "1", "1", "1"]}}}}, {"name": "StatefulPartitionedCall/model1/zero_padding2d_ZeroPadding2D2/Pad", "op": "Pad", "input": ["StatefulPartitionedCall/model1/re_lu_ReLU1/Relu", "StatefulPartitionedCall/model1/zero_padding2d_ZeroPadding2D2/Pad/paddings"], "attr": {"Tpaddings": {"type": "DT_INT32"}, "T": {"type": "DT_FLOAT"}}}, {"name": "StatefulPartitionedCall/model1/conv2d_Conv2D3/Conv2D", "op": "Conv2D", "input": ["StatefulPartitionedCall/model1/re_lu_ReLU1/Relu", "StatefulPartitionedCall/model1/conv2d_Conv2D3/Conv2D/ReadVariableOp"], "device": "/device:CPU:0", "attr": {"padding": {"s": "VkFMSUQ="}, "T": {"type": "DT_FLOAT"}, "strides": {"list": {"i": ["1", "1", "1", "1"]}}, "explicit_paddings": {"list": {}}, "use_cudnn_on_gpu": {"b": true}, "data_format": {"s": "TkhXQw=="}, "dilations": {"list": {"i": ["1", "1", "1", "1"]}}}}, {"name": "StatefulPartitionedCall/model1/depthwise_conv2d_DepthwiseConv2D1/depthwise", "op": "FusedDepthwiseConv2dNative", "input": ["StatefulPartitionedCall/model1/zero_padding2d_ZeroPadding2D2/Pad", "StatefulPartitionedCall/model1/depthwise_conv2d_DepthwiseConv2D1/depthwise/ReadVariableOp", "StatefulPartitionedCall/model1/depthwise_conv2d_DepthwiseConv2D1/BiasAdd/ReadVariableOp"], "attr": {"data_format": {"s": "TkhXQw=="}, "fused_ops": {"list": {"s": ["Qmlhc0FkZA=="]}}, "padding": {"s": "VkFMSUQ="}, "strides": {"list": {"i": ["1", "1", "1", "1"]}}, "num_args": {"i": "1"}, "dilations": {"list": {"i": ["1", "1", "1", "1"]}}, "explicit_paddings": {"list": {}}, "T": {"type": "DT_FLOAT"}}}, {"name": "StatefulPartitionedCall/model1/conv2d_Conv2D2/BiasAdd", "op": "_FusedConv2D", "input": ["StatefulPartitionedCall/model1/depthwise_conv2d_DepthwiseConv2D1/depthwise", "StatefulPartitionedCall/model1/conv2d_Conv2D2/Conv2D/ReadVariableOp", "StatefulPartitionedCall/model1/conv2d_Conv2D2/BiasAdd/ReadVariableOp"], "device": "/device:CPU:0", "attr": {"padding": {"s": "VkFMSUQ="}, "num_args": {"i": "1"}, "epsilon": {"f": 0.0}, "dilations": {"list": {"i": ["1", "1", "1", "1"]}}, "explicit_paddings": {"list": {}}, "data_format": {"s": "TkhXQw=="}, "strides": {"list": {"i": ["1", "1", "1", "1"]}}, "T": {"type": "DT_FLOAT"}, "fused_ops": {"list": {"s": ["Qmlhc0FkZA=="]}}, "use_cudnn_on_gpu": {"b": true}}}, {"name": "StatefulPartitionedCall/model1/add_Add1/add", "op": "AddV2", "input": ["StatefulPartitionedCall/model1/conv2d_Conv2D2/BiasAdd", "StatefulPartitionedCall/model1/conv2d_Conv2D3/Conv2D"], "attr": {"T": {"type": "DT_FLOAT"}}}, {"name": "StatefulPartitionedCall/model1/re_lu_ReLU2/Relu", "op": "Relu", "input": ["StatefulPartitionedCall/model1/add_Add1/add"], "attr": {"T": {"type": "DT_FLOAT"}}}, {"name": "StatefulPartitionedCall/model1/zero_padding2d_ZeroPadding2D3/Pad", "op": "Pad", "input": ["StatefulPartitionedCall/model1/re_lu_ReLU2/Relu", "StatefulPartitionedCall/model1/zero_padding2d_ZeroPadding2D3/Pad/paddings"], "attr": {"T": {"type": "DT_FLOAT"}, "Tpaddings": {"type": "DT_INT32"}}}, {"name": "StatefulPartitionedCall/model1/conv2d_Conv2D5/Conv2D", "op": "Conv2D", "input": ["StatefulPartitionedCall/model1/re_lu_ReLU2/Relu", "StatefulPartitionedCall/model1/conv2d_Conv2D5/Conv2D/ReadVariableOp"], "device": "/device:CPU:0", "attr": {"explicit_paddings": {"list": {}}, "use_cudnn_on_gpu": {"b": true}, "dilations": {"list": {"i": ["1", "1", "1", "1"]}}, "T": {"type": "DT_FLOAT"}, "data_format": {"s": "TkhXQw=="}, "strides": {"list": {"i": ["1", "1", "1", "1"]}}, "padding": {"s": "VkFMSUQ="}}}, {"name": "StatefulPartitionedCall/model1/depthwise_conv2d_DepthwiseConv2D2/depthwise", "op": "FusedDepthwiseConv2dNative", "input": ["StatefulPartitionedCall/model1/zero_padding2d_ZeroPadding2D3/Pad", "StatefulPartitionedCall/model1/depthwise_conv2d_DepthwiseConv2D2/depthwise/ReadVariableOp", "StatefulPartitionedCall/model1/depthwise_conv2d_DepthwiseConv2D2/BiasAdd/ReadVariableOp"], "attr": {"num_args": {"i": "1"}, "dilations": {"list": {"i": ["1", "1", "1", "1"]}}, "T": {"type": "DT_FLOAT"}, "data_format": {"s": "TkhXQw=="}, "fused_ops": {"list": {"s": ["Qmlhc0FkZA=="]}}, "strides": {"list": {"i": ["1", "1", "1", "1"]}}, "explicit_paddings": {"list": {}}, "padding": {"s": "VkFMSUQ="}}}, {"name": "StatefulPartitionedCall/model1/conv2d_Conv2D4/BiasAdd", "op": "_FusedConv2D", "input": ["StatefulPartitionedCall/model1/depthwise_conv2d_DepthwiseConv2D2/depthwise", "StatefulPartitionedCall/model1/conv2d_Conv2D4/Conv2D/ReadVariableOp", "StatefulPartitionedCall/model1/conv2d_Conv2D4/BiasAdd/ReadVariableOp"], "device": "/device:CPU:0", "attr": {"use_cudnn_on_gpu": {"b": true}, "epsilon": {"f": 0.0}, "dilations": {"list": {"i": ["1", "1", "1", "1"]}}, "data_format": {"s": "TkhXQw=="}, "explicit_paddings": {"list": {}}, "num_args": {"i": "1"}, "padding": {"s": "VkFMSUQ="}, "fused_ops": {"list": {"s": ["Qmlhc0FkZA=="]}}, "strides": {"list": {"i": ["1", "1", "1", "1"]}}, "T": {"type": "DT_FLOAT"}}}, {"name": "StatefulPartitionedCall/model1/add_Add2/add", "op": "AddV2", "input": ["StatefulPartitionedCall/model1/conv2d_Conv2D4/BiasAdd", "StatefulPartitionedCall/model1/conv2d_Conv2D5/Conv2D"], "attr": {"T": {"type": "DT_FLOAT"}}}, {"name": "StatefulPartitionedCall/model1/re_lu_ReLU3/Relu", "op": "Relu", "input": ["StatefulPartitionedCall/model1/add_Add2/add"], "attr": {"T": {"type": "DT_FLOAT"}}}, {"name": "StatefulPartitionedCall/model1/zero_padding2d_ZeroPadding2D4/Pad", "op": "Pad", "input": ["StatefulPartitionedCall/model1/re_lu_ReLU3/Relu", "StatefulPartitionedCall/model1/zero_padding2d_ZeroPadding2D4/Pad/paddings"], "attr": {"Tpaddings": {"type": "DT_INT32"}, "T": {"type": "DT_FLOAT"}}}, {"name": "StatefulPartitionedCall/model1/max_pooling2d_MaxPooling2D1/MaxPool", "op": "MaxPool", "input": ["StatefulPartitionedCall/model1/re_lu_ReLU3/Relu"], "attr": {"ksize": {"list": {"i": ["1", "2", "2", "1"]}}, "data_format": {"s": "TkhXQw=="}, "strides": {"list": {"i": ["1", "2", "2", "1"]}}, "padding": {"s": "VkFMSUQ="}, "T": {"type": "DT_FLOAT"}, "explicit_paddings": {"list": {}}}}, {"name": "StatefulPartitionedCall/model1/depthwise_conv2d_DepthwiseConv2D3/depthwise", "op": "FusedDepthwiseConv2dNative", "input": ["StatefulPartitionedCall/model1/zero_padding2d_ZeroPadding2D4/Pad", "StatefulPartitionedCall/model1/depthwise_conv2d_DepthwiseConv2D3/depthwise/ReadVariableOp", "StatefulPartitionedCall/model1/depthwise_conv2d_DepthwiseConv2D3/BiasAdd/ReadVariableOp"], "attr": {"explicit_paddings": {"list": {}}, "num_args": {"i": "1"}, "strides": {"list": {"i": ["1", "2", "2", "1"]}}, "dilations": {"list": {"i": ["1", "1", "1", "1"]}}, "fused_ops": {"list": {"s": ["Qmlhc0FkZA=="]}}, "data_format": {"s": "TkhXQw=="}, "T": {"type": "DT_FLOAT"}, "padding": {"s": "VkFMSUQ="}}}, {"name": "StatefulPartitionedCall/model1/conv2d_Conv2D7/Conv2D", "op": "Conv2D", "input": ["StatefulPartitionedCall/model1/max_pooling2d_MaxPooling2D1/MaxPool", "StatefulPartitionedCall/model1/conv2d_Conv2D7/Conv2D/ReadVariableOp"], "device": "/device:CPU:0", "attr": {"padding": {"s": "VkFMSUQ="}, "explicit_paddings": {"list": {}}, "dilations": {"list": {"i": ["1", "1", "1", "1"]}}, "strides": {"list": {"i": ["1", "1", "1", "1"]}}, "T": {"type": "DT_FLOAT"}, "data_format": {"s": "TkhXQw=="}, "use_cudnn_on_gpu": {"b": true}}}, {"name": "StatefulPartitionedCall/model1/conv2d_Conv2D6/BiasAdd", "op": "_FusedConv2D", "input": ["StatefulPartitionedCall/model1/depthwise_conv2d_DepthwiseConv2D3/depthwise", "StatefulPartitionedCall/model1/conv2d_Conv2D6/Conv2D/ReadVariableOp", "StatefulPartitionedCall/model1/conv2d_Conv2D6/BiasAdd/ReadVariableOp"], "device": "/device:CPU:0", "attr": {"fused_ops": {"list": {"s": ["Qmlhc0FkZA=="]}}, "data_format": {"s": "TkhXQw=="}, "strides": {"list": {"i": ["1", "1", "1", "1"]}}, "epsilon": {"f": 0.0}, "num_args": {"i": "1"}, "explicit_paddings": {"list": {}}, "dilations": {"list": {"i": ["1", "1", "1", "1"]}}, "use_cudnn_on_gpu": {"b": true}, "padding": {"s": "VkFMSUQ="}, "T": {"type": "DT_FLOAT"}}}, {"name": "StatefulPartitionedCall/model1/add_Add3/add", "op": "AddV2", "input": ["StatefulPartitionedCall/model1/conv2d_Conv2D6/BiasAdd", "StatefulPartitionedCall/model1/conv2d_Conv2D7/Conv2D"], "attr": {"T": {"type": "DT_FLOAT"}}}, {"name": "StatefulPartitionedCall/model1/re_lu_ReLU4/Relu", "op": "Relu", "input": ["StatefulPartitionedCall/model1/add_Add3/add"], "attr": {"T": {"type": "DT_FLOAT"}}}, {"name": "StatefulPartitionedCall/model1/zero_padding2d_ZeroPadding2D5/Pad", "op": "Pad", "input": ["StatefulPartitionedCall/model1/re_lu_ReLU4/Relu", "StatefulPartitionedCall/model1/zero_padding2d_ZeroPadding2D5/Pad/paddings"], "attr": {"Tpaddings": {"type": "DT_INT32"}, "T": {"type": "DT_FLOAT"}}}, {"name": "StatefulPartitionedCall/model1/conv2d_Conv2D9/Conv2D", "op": "Conv2D", "input": ["StatefulPartitionedCall/model1/re_lu_ReLU4/Relu", "StatefulPartitionedCall/model1/conv2d_Conv2D9/Conv2D/ReadVariableOp"], "device": "/device:CPU:0", "attr": {"use_cudnn_on_gpu": {"b": true}, "explicit_paddings": {"list": {}}, "data_format": {"s": "TkhXQw=="}, "dilations": {"list": {"i": ["1", "1", "1", "1"]}}, "T": {"type": "DT_FLOAT"}, "strides": {"list": {"i": ["1", "1", "1", "1"]}}, "padding": {"s": "VkFMSUQ="}}}, {"name": "StatefulPartitionedCall/model1/depthwise_conv2d_DepthwiseConv2D4/depthwise", "op": "FusedDepthwiseConv2dNative", "input": ["StatefulPartitionedCall/model1/zero_padding2d_ZeroPadding2D5/Pad", "StatefulPartitionedCall/model1/depthwise_conv2d_DepthwiseConv2D4/depthwise/ReadVariableOp", "StatefulPartitionedCall/model1/depthwise_conv2d_DepthwiseConv2D4/BiasAdd/ReadVariableOp"], "attr": {"T": {"type": "DT_FLOAT"}, "explicit_paddings": {"list": {}}, "dilations": {"list": {"i": ["1", "1", "1", "1"]}}, "padding": {"s": "VkFMSUQ="}, "data_format": {"s": "TkhXQw=="}, "strides": {"list": {"i": ["1", "1", "1", "1"]}}, "num_args": {"i": "1"}, "fused_ops": {"list": {"s": ["Qmlhc0FkZA=="]}}}}, {"name": "StatefulPartitionedCall/model1/conv2d_Conv2D8/BiasAdd", "op": "_FusedConv2D", "input": ["StatefulPartitionedCall/model1/depthwise_conv2d_DepthwiseConv2D4/depthwise", "StatefulPartitionedCall/model1/conv2d_Conv2D8/Conv2D/ReadVariableOp", "StatefulPartitionedCall/model1/conv2d_Conv2D8/BiasAdd/ReadVariableOp"], "device": "/device:CPU:0", "attr": {"dilations": {"list": {"i": ["1", "1", "1", "1"]}}, "explicit_paddings": {"list": {}}, "epsilon": {"f": 0.0}, "data_format": {"s": "TkhXQw=="}, "num_args": {"i": "1"}, "padding": {"s": "VkFMSUQ="}, "fused_ops": {"list": {"s": ["Qmlhc0FkZA=="]}}, "T": {"type": "DT_FLOAT"}, "strides": {"list": {"i": ["1", "1", "1", "1"]}}, "use_cudnn_on_gpu": {"b": true}}}, {"name": "StatefulPartitionedCall/model1/add_Add4/add", "op": "AddV2", "input": ["StatefulPartitionedCall/model1/conv2d_Conv2D8/BiasAdd", "StatefulPartitionedCall/model1/conv2d_Conv2D9/Conv2D"], "attr": {"T": {"type": "DT_FLOAT"}}}, {"name": "StatefulPartitionedCall/model1/re_lu_ReLU5/Relu", "op": "Relu", "input": ["StatefulPartitionedCall/model1/add_Add4/add"], "attr": {"T": {"type": "DT_FLOAT"}}}, {"name": "StatefulPartitionedCall/model1/zero_padding2d_ZeroPadding2D6/Pad", "op": "Pad", "input": ["StatefulPartitionedCall/model1/re_lu_ReLU5/Relu", "StatefulPartitionedCall/model1/zero_padding2d_ZeroPadding2D6/Pad/paddings"], "attr": {"Tpaddings": {"type": "DT_INT32"}, "T": {"type": "DT_FLOAT"}}}, {"name": "StatefulPartitionedCall/model1/conv2d_Conv2D11/Conv2D", "op": "Conv2D", "input": ["StatefulPartitionedCall/model1/re_lu_ReLU5/Relu", "StatefulPartitionedCall/model1/conv2d_Conv2D11/Conv2D/ReadVariableOp"], "device": "/device:CPU:0", "attr": {"data_format": {"s": "TkhXQw=="}, "T": {"type": "DT_FLOAT"}, "padding": {"s": "VkFMSUQ="}, "dilations": {"list": {"i": ["1", "1", "1", "1"]}}, "use_cudnn_on_gpu": {"b": true}, "strides": {"list": {"i": ["1", "1", "1", "1"]}}, "explicit_paddings": {"list": {}}}}, {"name": "StatefulPartitionedCall/model1/depthwise_conv2d_DepthwiseConv2D5/depthwise", "op": "FusedDepthwiseConv2dNative", "input": ["StatefulPartitionedCall/model1/zero_padding2d_ZeroPadding2D6/Pad", "StatefulPartitionedCall/model1/depthwise_conv2d_DepthwiseConv2D5/depthwise/ReadVariableOp", "StatefulPartitionedCall/model1/depthwise_conv2d_DepthwiseConv2D5/BiasAdd/ReadVariableOp"], "attr": {"dilations": {"list": {"i": ["1", "1", "1", "1"]}}, "explicit_paddings": {"list": {}}, "fused_ops": {"list": {"s": ["Qmlhc0FkZA=="]}}, "strides": {"list": {"i": ["1", "1", "1", "1"]}}, "T": {"type": "DT_FLOAT"}, "data_format": {"s": "TkhXQw=="}, "padding": {"s": "VkFMSUQ="}, "num_args": {"i": "1"}}}, {"name": "StatefulPartitionedCall/model1/conv2d_Conv2D10/BiasAdd", "op": "_FusedConv2D", "input": ["StatefulPartitionedCall/model1/depthwise_conv2d_DepthwiseConv2D5/depthwise", "StatefulPartitionedCall/model1/conv2d_Conv2D10/Conv2D/ReadVariableOp", "StatefulPartitionedCall/model1/conv2d_Conv2D10/BiasAdd/ReadVariableOp"], "device": "/device:CPU:0", "attr": {"data_format": {"s": "TkhXQw=="}, "padding": {"s": "VkFMSUQ="}, "T": {"type": "DT_FLOAT"}, "epsilon": {"f": 0.0}, "num_args": {"i": "1"}, "use_cudnn_on_gpu": {"b": true}, "explicit_paddings": {"list": {}}, "fused_ops": {"list": {"s": ["Qmlhc0FkZA=="]}}, "dilations": {"list": {"i": ["1", "1", "1", "1"]}}, "strides": {"list": {"i": ["1", "1", "1", "1"]}}}}, {"name": "StatefulPartitionedCall/model1/add_Add5/add", "op": "AddV2", "input": ["StatefulPartitionedCall/model1/conv2d_Conv2D10/BiasAdd", "StatefulPartitionedCall/model1/conv2d_Conv2D11/Conv2D"], "attr": {"T": {"type": "DT_FLOAT"}}}, {"name": "StatefulPartitionedCall/model1/re_lu_ReLU6/Relu", "op": "Relu", "input": ["StatefulPartitionedCall/model1/add_Add5/add"], "attr": {"T": {"type": "DT_FLOAT"}}}, {"name": "StatefulPartitionedCall/model1/zero_padding2d_ZeroPadding2D7/Pad", "op": "Pad", "input": ["StatefulPartitionedCall/model1/re_lu_ReLU6/Relu", "StatefulPartitionedCall/model1/zero_padding2d_ZeroPadding2D7/Pad/paddings"], "attr": {"T": {"type": "DT_FLOAT"}, "Tpaddings": {"type": "DT_INT32"}}}, {"name": "StatefulPartitionedCall/model1/max_pooling2d_MaxPooling2D2/MaxPool", "op": "MaxPool", "input": ["StatefulPartitionedCall/model1/re_lu_ReLU6/Relu"], "attr": {"data_format": {"s": "TkhXQw=="}, "ksize": {"list": {"i": ["1", "2", "2", "1"]}}, "explicit_paddings": {"list": {}}, "padding": {"s": "VkFMSUQ="}, "T": {"type": "DT_FLOAT"}, "strides": {"list": {"i": ["1", "2", "2", "1"]}}}}, {"name": "StatefulPartitionedCall/model1/depthwise_conv2d_DepthwiseConv2D6/depthwise", "op": "FusedDepthwiseConv2dNative", "input": ["StatefulPartitionedCall/model1/zero_padding2d_ZeroPadding2D7/Pad", "StatefulPartitionedCall/model1/depthwise_conv2d_DepthwiseConv2D6/depthwise/ReadVariableOp", "StatefulPartitionedCall/model1/depthwise_conv2d_DepthwiseConv2D6/BiasAdd/ReadVariableOp"], "attr": {"padding": {"s": "VkFMSUQ="}, "strides": {"list": {"i": ["1", "2", "2", "1"]}}, "dilations": {"list": {"i": ["1", "1", "1", "1"]}}, "explicit_paddings": {"list": {}}, "fused_ops": {"list": {"s": ["Qmlhc0FkZA=="]}}, "num_args": {"i": "1"}, "data_format": {"s": "TkhXQw=="}, "T": {"type": "DT_FLOAT"}}}, {"name": "StatefulPartitionedCall/model1/conv2d_Conv2D14/Conv2D", "op": "Conv2D", "input": ["StatefulPartitionedCall/model1/max_pooling2d_MaxPooling2D2/MaxPool", "StatefulPartitionedCall/model1/conv2d_Conv2D14/Conv2D/ReadVariableOp"], "device": "/device:CPU:0", "attr": {"T": {"type": "DT_FLOAT"}, "padding": {"s": "VkFMSUQ="}, "data_format": {"s": "TkhXQw=="}, "dilations": {"list": {"i": ["1", "1", "1", "1"]}}, "use_cudnn_on_gpu": {"b": true}, "explicit_paddings": {"list": {}}, "strides": {"list": {"i": ["1", "1", "1", "1"]}}}}, {"name": "StatefulPartitionedCall/model1/re_lu_ReLU7/Relu", "op": "_FusedConv2D", "input": ["StatefulPartitionedCall/model1/depthwise_conv2d_DepthwiseConv2D6/depthwise", "StatefulPartitionedCall/model1/conv2d_Conv2D12/Conv2D/ReadVariableOp", "StatefulPartitionedCall/model1/conv2d_Conv2D12/BiasAdd/ReadVariableOp"], "device": "/device:CPU:0", "attr": {"dilations": {"list": {"i": ["1", "1", "1", "1"]}}, "fused_ops": {"list": {"s": ["Qmlhc0FkZA==", "UmVsdQ=="]}}, "T": {"type": "DT_FLOAT"}, "epsilon": {"f": 0.0}, "use_cudnn_on_gpu": {"b": true}, "num_args": {"i": "1"}, "strides": {"list": {"i": ["1", "1", "1", "1"]}}, "explicit_paddings": {"list": {}}, "padding": {"s": "VkFMSUQ="}, "data_format": {"s": "TkhXQw=="}}}, {"name": "StatefulPartitionedCall/model1/zero_padding2d_ZeroPadding2D8/Pad", "op": "Pad", "input": ["StatefulPartitionedCall/model1/re_lu_ReLU7/Relu", "StatefulPartitionedCall/model1/zero_padding2d_ZeroPadding2D8/Pad/paddings"], "attr": {"Tpaddings": {"type": "DT_INT32"}, "T": {"type": "DT_FLOAT"}}}, {"name": "StatefulPartitionedCall/model1/depthwise_conv2d_DepthwiseConv2D7/depthwise", "op": "FusedDepthwiseConv2dNative", "input": ["StatefulPartitionedCall/model1/zero_padding2d_ZeroPadding2D8/Pad", "StatefulPartitionedCall/model1/depthwise_conv2d_DepthwiseConv2D7/depthwise/ReadVariableOp", "StatefulPartitionedCall/model1/depthwise_conv2d_DepthwiseConv2D7/BiasAdd/ReadVariableOp"], "attr": {"dilations": {"list": {"i": ["1", "1", "1", "1"]}}, "data_format": {"s": "TkhXQw=="}, "padding": {"s": "VkFMSUQ="}, "strides": {"list": {"i": ["1", "1", "1", "1"]}}, "num_args": {"i": "1"}, "explicit_paddings": {"list": {}}, "T": {"type": "DT_FLOAT"}, "fused_ops": {"list": {"s": ["Qmlhc0FkZA=="]}}}}, {"name": "StatefulPartitionedCall/model1/conv2d_Conv2D13/BiasAdd", "op": "_FusedConv2D", "input": ["StatefulPartitionedCall/model1/depthwise_conv2d_DepthwiseConv2D7/depthwise", "StatefulPartitionedCall/model1/conv2d_Conv2D13/Conv2D/ReadVariableOp", "StatefulPartitionedCall/model1/conv2d_Conv2D13/BiasAdd/ReadVariableOp"], "device": "/device:CPU:0", "attr": {"dilations": {"list": {"i": ["1", "1", "1", "1"]}}, "epsilon": {"f": 0.0}, "num_args": {"i": "1"}, "explicit_paddings": {"list": {}}, "strides": {"list": {"i": ["1", "1", "1", "1"]}}, "fused_ops": {"list": {"s": ["Qmlhc0FkZA=="]}}, "data_format": {"s": "TkhXQw=="}, "padding": {"s": "VkFMSUQ="}, "T": {"type": "DT_FLOAT"}, "use_cudnn_on_gpu": {"b": true}}}, {"name": "StatefulPartitionedCall/model1/add_Add6/add", "op": "AddV2", "input": ["StatefulPartitionedCall/model1/conv2d_Conv2D13/BiasAdd", "StatefulPartitionedCall/model1/conv2d_Conv2D14/Conv2D"], "attr": {"T": {"type": "DT_FLOAT"}}}, {"name": "StatefulPartitionedCall/model1/re_lu_ReLU8/Relu", "op": "Relu", "input": ["StatefulPartitionedCall/model1/add_Add6/add"], "attr": {"T": {"type": "DT_FLOAT"}}}, {"name": "StatefulPartitionedCall/model1/zero_padding2d_ZeroPadding2D9/Pad", "op": "Pad", "input": ["StatefulPartitionedCall/model1/re_lu_ReLU8/Relu", "StatefulPartitionedCall/model1/zero_padding2d_ZeroPadding2D9/Pad/paddings"], "attr": {"T": {"type": "DT_FLOAT"}, "Tpaddings": {"type": "DT_INT32"}}}, {"name": "StatefulPartitionedCall/model1/conv2d_Conv2D17/Conv2D", "op": "Conv2D", "input": ["StatefulPartitionedCall/model1/re_lu_ReLU8/Relu", "StatefulPartitionedCall/model1/conv2d_Conv2D17/Conv2D/ReadVariableOp"], "device": "/device:CPU:0", "attr": {"strides": {"list": {"i": ["1", "1", "1", "1"]}}, "T": {"type": "DT_FLOAT"}, "padding": {"s": "VkFMSUQ="}, "use_cudnn_on_gpu": {"b": true}, "explicit_paddings": {"list": {}}, "dilations": {"list": {"i": ["1", "1", "1", "1"]}}, "data_format": {"s": "TkhXQw=="}}}, {"name": "StatefulPartitionedCall/model1/depthwise_conv2d_DepthwiseConv2D8/depthwise", "op": "FusedDepthwiseConv2dNative", "input": ["StatefulPartitionedCall/model1/zero_padding2d_ZeroPadding2D9/Pad", "StatefulPartitionedCall/model1/depthwise_conv2d_DepthwiseConv2D8/depthwise/ReadVariableOp", "StatefulPartitionedCall/model1/depthwise_conv2d_DepthwiseConv2D8/BiasAdd/ReadVariableOp"], "attr": {"num_args": {"i": "1"}, "padding": {"s": "VkFMSUQ="}, "data_format": {"s": "TkhXQw=="}, "explicit_paddings": {"list": {}}, "fused_ops": {"list": {"s": ["Qmlhc0FkZA=="]}}, "dilations": {"list": {"i": ["1", "1", "1", "1"]}}, "T": {"type": "DT_FLOAT"}, "strides": {"list": {"i": ["1", "1", "1", "1"]}}}}, {"name": "StatefulPartitionedCall/model1/re_lu_ReLU9/Relu", "op": "_FusedConv2D", "input": ["StatefulPartitionedCall/model1/depthwise_conv2d_DepthwiseConv2D8/depthwise", "StatefulPartitionedCall/model1/conv2d_Conv2D15/Conv2D/ReadVariableOp", "StatefulPartitionedCall/model1/conv2d_Conv2D15/BiasAdd/ReadVariableOp"], "device": "/device:CPU:0", "attr": {"dilations": {"list": {"i": ["1", "1", "1", "1"]}}, "fused_ops": {"list": {"s": ["Qmlhc0FkZA==", "UmVsdQ=="]}}, "padding": {"s": "VkFMSUQ="}, "num_args": {"i": "1"}, "T": {"type": "DT_FLOAT"}, "use_cudnn_on_gpu": {"b": true}, "data_format": {"s": "TkhXQw=="}, "epsilon": {"f": 0.0}, "explicit_paddings": {"list": {}}, "strides": {"list": {"i": ["1", "1", "1", "1"]}}}}, {"name": "StatefulPartitionedCall/model1/zero_padding2d_ZeroPadding2D10/Pad", "op": "Pad", "input": ["StatefulPartitionedCall/model1/re_lu_ReLU9/Relu", "StatefulPartitionedCall/model1/zero_padding2d_ZeroPadding2D10/Pad/paddings"], "attr": {"T": {"type": "DT_FLOAT"}, "Tpaddings": {"type": "DT_INT32"}}}, {"name": "StatefulPartitionedCall/model1/depthwise_conv2d_DepthwiseConv2D9/depthwise", "op": "FusedDepthwiseConv2dNative", "input": ["StatefulPartitionedCall/model1/zero_padding2d_ZeroPadding2D10/Pad", "StatefulPartitionedCall/model1/depthwise_conv2d_DepthwiseConv2D9/depthwise/ReadVariableOp", "StatefulPartitionedCall/model1/depthwise_conv2d_DepthwiseConv2D9/BiasAdd/ReadVariableOp"], "attr": {"T": {"type": "DT_FLOAT"}, "fused_ops": {"list": {"s": ["Qmlhc0FkZA=="]}}, "num_args": {"i": "1"}, "data_format": {"s": "TkhXQw=="}, "padding": {"s": "VkFMSUQ="}, "strides": {"list": {"i": ["1", "1", "1", "1"]}}, "explicit_paddings": {"list": {}}, "dilations": {"list": {"i": ["1", "1", "1", "1"]}}}}, {"name": "StatefulPartitionedCall/model1/conv2d_Conv2D16/BiasAdd", "op": "_FusedConv2D", "input": ["StatefulPartitionedCall/model1/depthwise_conv2d_DepthwiseConv2D9/depthwise", "StatefulPartitionedCall/model1/conv2d_Conv2D16/Conv2D/ReadVariableOp", "StatefulPartitionedCall/model1/conv2d_Conv2D16/BiasAdd/ReadVariableOp"], "device": "/device:CPU:0", "attr": {"padding": {"s": "VkFMSUQ="}, "epsilon": {"f": 0.0}, "data_format": {"s": "TkhXQw=="}, "num_args": {"i": "1"}, "T": {"type": "DT_FLOAT"}, "dilations": {"list": {"i": ["1", "1", "1", "1"]}}, "strides": {"list": {"i": ["1", "1", "1", "1"]}}, "use_cudnn_on_gpu": {"b": true}, "fused_ops": {"list": {"s": ["Qmlhc0FkZA=="]}}, "explicit_paddings": {"list": {}}}}, {"name": "StatefulPartitionedCall/model1/add_Add7/add", "op": "AddV2", "input": ["StatefulPartitionedCall/model1/conv2d_Conv2D16/BiasAdd", "StatefulPartitionedCall/model1/conv2d_Conv2D17/Conv2D"], "attr": {"T": {"type": "DT_FLOAT"}}}, {"name": "StatefulPartitionedCall/model1/re_lu_ReLU10/Relu", "op": "Relu", "input": ["StatefulPartitionedCall/model1/add_Add7/add"], "attr": {"T": {"type": "DT_FLOAT"}}}, {"name": "StatefulPartitionedCall/model1/zero_padding2d_ZeroPadding2D11/Pad", "op": "Pad", "input": ["StatefulPartitionedCall/model1/re_lu_ReLU10/Relu", "StatefulPartitionedCall/model1/zero_padding2d_ZeroPadding2D11/Pad/paddings"], "attr": {"T": {"type": "DT_FLOAT"}, "Tpaddings": {"type": "DT_INT32"}}}, {"name": "StatefulPartitionedCall/model1/conv2d_Conv2D20/Conv2D", "op": "Conv2D", "input": ["StatefulPartitionedCall/model1/re_lu_ReLU10/Relu", "StatefulPartitionedCall/model1/conv2d_Conv2D20/Conv2D/ReadVariableOp"], "device": "/device:CPU:0", "attr": {"dilations": {"list": {"i": ["1", "1", "1", "1"]}}, "use_cudnn_on_gpu": {"b": true}, "padding": {"s": "VkFMSUQ="}, "T": {"type": "DT_FLOAT"}, "data_format": {"s": "TkhXQw=="}, "explicit_paddings": {"list": {}}, "strides": {"list": {"i": ["1", "1", "1", "1"]}}}}, {"name": "StatefulPartitionedCall/model1/depthwise_conv2d_DepthwiseConv2D10/depthwise", "op": "FusedDepthwiseConv2dNative", "input": ["StatefulPartitionedCall/model1/zero_padding2d_ZeroPadding2D11/Pad", "StatefulPartitionedCall/model1/depthwise_conv2d_DepthwiseConv2D10/depthwise/ReadVariableOp", "StatefulPartitionedCall/model1/depthwise_conv2d_DepthwiseConv2D10/BiasAdd/ReadVariableOp"], "attr": {"fused_ops": {"list": {"s": ["Qmlhc0FkZA=="]}}, "num_args": {"i": "1"}, "dilations": {"list": {"i": ["1", "1", "1", "1"]}}, "strides": {"list": {"i": ["1", "1", "1", "1"]}}, "data_format": {"s": "TkhXQw=="}, "explicit_paddings": {"list": {}}, "T": {"type": "DT_FLOAT"}, "padding": {"s": "VkFMSUQ="}}}, {"name": "StatefulPartitionedCall/model1/re_lu_ReLU11/Relu", "op": "_FusedConv2D", "input": ["StatefulPartitionedCall/model1/depthwise_conv2d_DepthwiseConv2D10/depthwise", "StatefulPartitionedCall/model1/conv2d_Conv2D18/Conv2D/ReadVariableOp", "StatefulPartitionedCall/model1/conv2d_Conv2D18/BiasAdd/ReadVariableOp"], "device": "/device:CPU:0", "attr": {"padding": {"s": "VkFMSUQ="}, "strides": {"list": {"i": ["1", "1", "1", "1"]}}, "explicit_paddings": {"list": {}}, "T": {"type": "DT_FLOAT"}, "dilations": {"list": {"i": ["1", "1", "1", "1"]}}, "epsilon": {"f": 0.0}, "fused_ops": {"list": {"s": ["Qmlhc0FkZA==", "UmVsdQ=="]}}, "data_format": {"s": "TkhXQw=="}, "use_cudnn_on_gpu": {"b": true}, "num_args": {"i": "1"}}}, {"name": "StatefulPartitionedCall/model1/zero_padding2d_ZeroPadding2D12/Pad", "op": "Pad", "input": ["StatefulPartitionedCall/model1/re_lu_ReLU11/Relu", "StatefulPartitionedCall/model1/zero_padding2d_ZeroPadding2D12/Pad/paddings"], "attr": {"Tpaddings": {"type": "DT_INT32"}, "T": {"type": "DT_FLOAT"}}}, {"name": "StatefulPartitionedCall/model1/depthwise_conv2d_DepthwiseConv2D11/depthwise", "op": "FusedDepthwiseConv2dNative", "input": ["StatefulPartitionedCall/model1/zero_padding2d_ZeroPadding2D12/Pad", "StatefulPartitionedCall/model1/depthwise_conv2d_DepthwiseConv2D11/depthwise/ReadVariableOp", "StatefulPartitionedCall/model1/depthwise_conv2d_DepthwiseConv2D11/BiasAdd/ReadVariableOp"], "attr": {"num_args": {"i": "1"}, "data_format": {"s": "TkhXQw=="}, "T": {"type": "DT_FLOAT"}, "fused_ops": {"list": {"s": ["Qmlhc0FkZA=="]}}, "dilations": {"list": {"i": ["1", "1", "1", "1"]}}, "explicit_paddings": {"list": {}}, "padding": {"s": "VkFMSUQ="}, "strides": {"list": {"i": ["1", "1", "1", "1"]}}}}, {"name": "StatefulPartitionedCall/model1/conv2d_Conv2D19/BiasAdd", "op": "_FusedConv2D", "input": ["StatefulPartitionedCall/model1/depthwise_conv2d_DepthwiseConv2D11/depthwise", "StatefulPartitionedCall/model1/conv2d_Conv2D19/Conv2D/ReadVariableOp", "StatefulPartitionedCall/model1/conv2d_Conv2D19/BiasAdd/ReadVariableOp"], "device": "/device:CPU:0", "attr": {"strides": {"list": {"i": ["1", "1", "1", "1"]}}, "T": {"type": "DT_FLOAT"}, "explicit_paddings": {"list": {}}, "fused_ops": {"list": {"s": ["Qmlhc0FkZA=="]}}, "num_args": {"i": "1"}, "dilations": {"list": {"i": ["1", "1", "1", "1"]}}, "data_format": {"s": "TkhXQw=="}, "use_cudnn_on_gpu": {"b": true}, "epsilon": {"f": 0.0}, "padding": {"s": "VkFMSUQ="}}}, {"name": "StatefulPartitionedCall/model1/add_Add8/add", "op": "AddV2", "input": ["StatefulPartitionedCall/model1/conv2d_Conv2D19/BiasAdd", "StatefulPartitionedCall/model1/conv2d_Conv2D20/Conv2D"], "attr": {"T": {"type": "DT_FLOAT"}}}, {"name": "StatefulPartitionedCall/model1/re_lu_ReLU12/Relu", "op": "Relu", "input": ["StatefulPartitionedCall/model1/add_Add8/add"], "attr": {"T": {"type": "DT_FLOAT"}}}, {"name": "StatefulPartitionedCall/model1/zero_padding2d_ZeroPadding2D13/Pad", "op": "Pad", "input": ["StatefulPartitionedCall/model1/re_lu_ReLU12/Relu", "StatefulPartitionedCall/model1/zero_padding2d_ZeroPadding2D13/Pad/paddings"], "attr": {"T": {"type": "DT_FLOAT"}, "Tpaddings": {"type": "DT_INT32"}}}, {"name": "StatefulPartitionedCall/model1/max_pooling2d_MaxPooling2D3/MaxPool", "op": "MaxPool", "input": ["StatefulPartitionedCall/model1/re_lu_ReLU12/Relu"], "attr": {"strides": {"list": {"i": ["1", "2", "2", "1"]}}, "padding": {"s": "VkFMSUQ="}, "explicit_paddings": {"list": {}}, "ksize": {"list": {"i": ["1", "2", "2", "1"]}}, "data_format": {"s": "TkhXQw=="}, "T": {"type": "DT_FLOAT"}}}, {"name": "StatefulPartitionedCall/model1/depthwise_conv2d_DepthwiseConv2D12/depthwise", "op": "FusedDepthwiseConv2dNative", "input": ["StatefulPartitionedCall/model1/zero_padding2d_ZeroPadding2D13/Pad", "StatefulPartitionedCall/model1/depthwise_conv2d_DepthwiseConv2D12/depthwise/ReadVariableOp", "StatefulPartitionedCall/model1/depthwise_conv2d_DepthwiseConv2D12/BiasAdd/ReadVariableOp"], "attr": {"dilations": {"list": {"i": ["1", "1", "1", "1"]}}, "padding": {"s": "VkFMSUQ="}, "explicit_paddings": {"list": {}}, "fused_ops": {"list": {"s": ["Qmlhc0FkZA=="]}}, "data_format": {"s": "TkhXQw=="}, "strides": {"list": {"i": ["1", "2", "2", "1"]}}, "T": {"type": "DT_FLOAT"}, "num_args": {"i": "1"}}}, {"name": "StatefulPartitionedCall/model1/conv2d_Conv2D23/Conv2D", "op": "Conv2D", "input": ["StatefulPartitionedCall/model1/max_pooling2d_MaxPooling2D3/MaxPool", "StatefulPartitionedCall/model1/conv2d_Conv2D23/Conv2D/ReadVariableOp"], "device": "/device:CPU:0", "attr": {"T": {"type": "DT_FLOAT"}, "strides": {"list": {"i": ["1", "1", "1", "1"]}}, "data_format": {"s": "TkhXQw=="}, "dilations": {"list": {"i": ["1", "1", "1", "1"]}}, "explicit_paddings": {"list": {}}, "padding": {"s": "VkFMSUQ="}, "use_cudnn_on_gpu": {"b": true}}}, {"name": "StatefulPartitionedCall/model1/re_lu_ReLU13/Relu", "op": "_FusedConv2D", "input": ["StatefulPartitionedCall/model1/depthwise_conv2d_DepthwiseConv2D12/depthwise", "StatefulPartitionedCall/model1/conv2d_Conv2D21/Conv2D/ReadVariableOp", "StatefulPartitionedCall/model1/conv2d_Conv2D21/BiasAdd/ReadVariableOp"], "device": "/device:CPU:0", "attr": {"strides": {"list": {"i": ["1", "1", "1", "1"]}}, "data_format": {"s": "TkhXQw=="}, "use_cudnn_on_gpu": {"b": true}, "fused_ops": {"list": {"s": ["Qmlhc0FkZA==", "UmVsdQ=="]}}, "epsilon": {"f": 0.0}, "num_args": {"i": "1"}, "dilations": {"list": {"i": ["1", "1", "1", "1"]}}, "padding": {"s": "VkFMSUQ="}, "T": {"type": "DT_FLOAT"}, "explicit_paddings": {"list": {}}}}, {"name": "StatefulPartitionedCall/model1/zero_padding2d_ZeroPadding2D14/Pad", "op": "Pad", "input": ["StatefulPartitionedCall/model1/re_lu_ReLU13/Relu", "StatefulPartitionedCall/model1/zero_padding2d_ZeroPadding2D14/Pad/paddings"], "attr": {"Tpaddings": {"type": "DT_INT32"}, "T": {"type": "DT_FLOAT"}}}, {"name": "StatefulPartitionedCall/model1/depthwise_conv2d_DepthwiseConv2D13/depthwise", "op": "FusedDepthwiseConv2dNative", "input": ["StatefulPartitionedCall/model1/zero_padding2d_ZeroPadding2D14/Pad", "StatefulPartitionedCall/model1/depthwise_conv2d_DepthwiseConv2D13/depthwise/ReadVariableOp", "StatefulPartitionedCall/model1/depthwise_conv2d_DepthwiseConv2D13/BiasAdd/ReadVariableOp"], "attr": {"padding": {"s": "VkFMSUQ="}, "T": {"type": "DT_FLOAT"}, "fused_ops": {"list": {"s": ["Qmlhc0FkZA=="]}}, "strides": {"list": {"i": ["1", "1", "1", "1"]}}, "explicit_paddings": {"list": {}}, "dilations": {"list": {"i": ["1", "1", "1", "1"]}}, "num_args": {"i": "1"}, "data_format": {"s": "TkhXQw=="}}}, {"name": "StatefulPartitionedCall/model1/conv2d_Conv2D22/BiasAdd", "op": "_FusedConv2D", "input": ["StatefulPartitionedCall/model1/depthwise_conv2d_DepthwiseConv2D13/depthwise", "StatefulPartitionedCall/model1/conv2d_Conv2D22/Conv2D/ReadVariableOp", "StatefulPartitionedCall/model1/conv2d_Conv2D22/BiasAdd/ReadVariableOp"], "device": "/device:CPU:0", "attr": {"T": {"type": "DT_FLOAT"}, "padding": {"s": "VkFMSUQ="}, "fused_ops": {"list": {"s": ["Qmlhc0FkZA=="]}}, "strides": {"list": {"i": ["1", "1", "1", "1"]}}, "dilations": {"list": {"i": ["1", "1", "1", "1"]}}, "data_format": {"s": "TkhXQw=="}, "explicit_paddings": {"list": {}}, "num_args": {"i": "1"}, "use_cudnn_on_gpu": {"b": true}, "epsilon": {"f": 0.0}}}, {"name": "StatefulPartitionedCall/model1/add_Add9/add", "op": "AddV2", "input": ["StatefulPartitionedCall/model1/conv2d_Conv2D22/BiasAdd", "StatefulPartitionedCall/model1/conv2d_Conv2D23/Conv2D"], "attr": {"T": {"type": "DT_FLOAT"}}}, {"name": "StatefulPartitionedCall/model1/re_lu_ReLU14/Relu", "op": "Relu", "input": ["StatefulPartitionedCall/model1/add_Add9/add"], "attr": {"T": {"type": "DT_FLOAT"}}}, {"name": "StatefulPartitionedCall/model1/zero_padding2d_ZeroPadding2D15/Pad", "op": "Pad", "input": ["StatefulPartitionedCall/model1/re_lu_ReLU14/Relu", "StatefulPartitionedCall/model1/zero_padding2d_ZeroPadding2D15/Pad/paddings"], "attr": {"T": {"type": "DT_FLOAT"}, "Tpaddings": {"type": "DT_INT32"}}}, {"name": "StatefulPartitionedCall/model1/conv2d_Conv2D26/Conv2D", "op": "Conv2D", "input": ["StatefulPartitionedCall/model1/re_lu_ReLU14/Relu", "StatefulPartitionedCall/model1/conv2d_Conv2D26/Conv2D/ReadVariableOp"], "device": "/device:CPU:0", "attr": {"dilations": {"list": {"i": ["1", "1", "1", "1"]}}, "explicit_paddings": {"list": {}}, "strides": {"list": {"i": ["1", "1", "1", "1"]}}, "padding": {"s": "VkFMSUQ="}, "data_format": {"s": "TkhXQw=="}, "use_cudnn_on_gpu": {"b": true}, "T": {"type": "DT_FLOAT"}}}, {"name": "StatefulPartitionedCall/model1/depthwise_conv2d_DepthwiseConv2D14/depthwise", "op": "FusedDepthwiseConv2dNative", "input": ["StatefulPartitionedCall/model1/zero_padding2d_ZeroPadding2D15/Pad", "StatefulPartitionedCall/model1/depthwise_conv2d_DepthwiseConv2D14/depthwise/ReadVariableOp", "StatefulPartitionedCall/model1/depthwise_conv2d_DepthwiseConv2D14/BiasAdd/ReadVariableOp"], "attr": {"strides": {"list": {"i": ["1", "1", "1", "1"]}}, "num_args": {"i": "1"}, "padding": {"s": "VkFMSUQ="}, "explicit_paddings": {"list": {}}, "fused_ops": {"list": {"s": ["Qmlhc0FkZA=="]}}, "dilations": {"list": {"i": ["1", "1", "1", "1"]}}, "data_format": {"s": "TkhXQw=="}, "T": {"type": "DT_FLOAT"}}}, {"name": "StatefulPartitionedCall/model1/re_lu_ReLU15/Relu", "op": "_FusedConv2D", "input": ["StatefulPartitionedCall/model1/depthwise_conv2d_DepthwiseConv2D14/depthwise", "StatefulPartitionedCall/model1/conv2d_Conv2D24/Conv2D/ReadVariableOp", "StatefulPartitionedCall/model1/conv2d_Conv2D24/BiasAdd/ReadVariableOp"], "device": "/device:CPU:0", "attr": {"num_args": {"i": "1"}, "strides": {"list": {"i": ["1", "1", "1", "1"]}}, "use_cudnn_on_gpu": {"b": true}, "epsilon": {"f": 0.0}, "explicit_paddings": {"list": {}}, "padding": {"s": "VkFMSUQ="}, "T": {"type": "DT_FLOAT"}, "data_format": {"s": "TkhXQw=="}, "fused_ops": {"list": {"s": ["Qmlhc0FkZA==", "UmVsdQ=="]}}, "dilations": {"list": {"i": ["1", "1", "1", "1"]}}}}, {"name": "StatefulPartitionedCall/model1/zero_padding2d_ZeroPadding2D16/Pad", "op": "Pad", "input": ["StatefulPartitionedCall/model1/re_lu_ReLU15/Relu", "StatefulPartitionedCall/model1/zero_padding2d_ZeroPadding2D16/Pad/paddings"], "attr": {"Tpaddings": {"type": "DT_INT32"}, "T": {"type": "DT_FLOAT"}}}, {"name": "StatefulPartitionedCall/model1/depthwise_conv2d_DepthwiseConv2D15/depthwise", "op": "FusedDepthwiseConv2dNative", "input": ["StatefulPartitionedCall/model1/zero_padding2d_ZeroPadding2D16/Pad", "StatefulPartitionedCall/model1/depthwise_conv2d_DepthwiseConv2D15/depthwise/ReadVariableOp", "StatefulPartitionedCall/model1/depthwise_conv2d_DepthwiseConv2D15/BiasAdd/ReadVariableOp"], "attr": {"fused_ops": {"list": {"s": ["Qmlhc0FkZA=="]}}, "data_format": {"s": "TkhXQw=="}, "dilations": {"list": {"i": ["1", "1", "1", "1"]}}, "explicit_paddings": {"list": {}}, "num_args": {"i": "1"}, "padding": {"s": "VkFMSUQ="}, "strides": {"list": {"i": ["1", "1", "1", "1"]}}, "T": {"type": "DT_FLOAT"}}}, {"name": "StatefulPartitionedCall/model1/conv2d_Conv2D25/BiasAdd", "op": "_FusedConv2D", "input": ["StatefulPartitionedCall/model1/depthwise_conv2d_DepthwiseConv2D15/depthwise", "StatefulPartitionedCall/model1/conv2d_Conv2D25/Conv2D/ReadVariableOp", "StatefulPartitionedCall/model1/conv2d_Conv2D25/BiasAdd/ReadVariableOp"], "device": "/device:CPU:0", "attr": {"explicit_paddings": {"list": {}}, "num_args": {"i": "1"}, "T": {"type": "DT_FLOAT"}, "data_format": {"s": "TkhXQw=="}, "padding": {"s": "VkFMSUQ="}, "dilations": {"list": {"i": ["1", "1", "1", "1"]}}, "fused_ops": {"list": {"s": ["Qmlhc0FkZA=="]}}, "epsilon": {"f": 0.0}, "strides": {"list": {"i": ["1", "1", "1", "1"]}}, "use_cudnn_on_gpu": {"b": true}}}, {"name": "StatefulPartitionedCall/model1/add_Add10/add", "op": "AddV2", "input": ["StatefulPartitionedCall/model1/conv2d_Conv2D25/BiasAdd", "StatefulPartitionedCall/model1/conv2d_Conv2D26/Conv2D"], "attr": {"T": {"type": "DT_FLOAT"}}}, {"name": "StatefulPartitionedCall/model1/re_lu_ReLU16/Relu", "op": "Relu", "input": ["StatefulPartitionedCall/model1/add_Add10/add"], "attr": {"T": {"type": "DT_FLOAT"}}}, {"name": "StatefulPartitionedCall/model1/zero_padding2d_ZeroPadding2D17/Pad", "op": "Pad", "input": ["StatefulPartitionedCall/model1/re_lu_ReLU16/Relu", "StatefulPartitionedCall/model1/zero_padding2d_ZeroPadding2D17/Pad/paddings"], "attr": {"Tpaddings": {"type": "DT_INT32"}, "T": {"type": "DT_FLOAT"}}}, {"name": "StatefulPartitionedCall/model1/conv2d_Conv2D29/Conv2D", "op": "Conv2D", "input": ["StatefulPartitionedCall/model1/re_lu_ReLU16/Relu", "StatefulPartitionedCall/model1/conv2d_Conv2D29/Conv2D/ReadVariableOp"], "device": "/device:CPU:0", "attr": {"T": {"type": "DT_FLOAT"}, "data_format": {"s": "TkhXQw=="}, "use_cudnn_on_gpu": {"b": true}, "padding": {"s": "VkFMSUQ="}, "explicit_paddings": {"list": {}}, "dilations": {"list": {"i": ["1", "1", "1", "1"]}}, "strides": {"list": {"i": ["1", "1", "1", "1"]}}}}, {"name": "StatefulPartitionedCall/model1/depthwise_conv2d_DepthwiseConv2D16/depthwise", "op": "FusedDepthwiseConv2dNative", "input": ["StatefulPartitionedCall/model1/zero_padding2d_ZeroPadding2D17/Pad", "StatefulPartitionedCall/model1/depthwise_conv2d_DepthwiseConv2D16/depthwise/ReadVariableOp", "StatefulPartitionedCall/model1/depthwise_conv2d_DepthwiseConv2D16/BiasAdd/ReadVariableOp"], "attr": {"explicit_paddings": {"list": {}}, "fused_ops": {"list": {"s": ["Qmlhc0FkZA=="]}}, "T": {"type": "DT_FLOAT"}, "data_format": {"s": "TkhXQw=="}, "strides": {"list": {"i": ["1", "1", "1", "1"]}}, "num_args": {"i": "1"}, "padding": {"s": "VkFMSUQ="}, "dilations": {"list": {"i": ["1", "1", "1", "1"]}}}}, {"name": "StatefulPartitionedCall/model1/re_lu_ReLU17/Relu", "op": "_FusedConv2D", "input": ["StatefulPartitionedCall/model1/depthwise_conv2d_DepthwiseConv2D16/depthwise", "StatefulPartitionedCall/model1/conv2d_Conv2D27/Conv2D/ReadVariableOp", "StatefulPartitionedCall/model1/conv2d_Conv2D27/BiasAdd/ReadVariableOp"], "device": "/device:CPU:0", "attr": {"num_args": {"i": "1"}, "T": {"type": "DT_FLOAT"}, "explicit_paddings": {"list": {}}, "dilations": {"list": {"i": ["1", "1", "1", "1"]}}, "strides": {"list": {"i": ["1", "1", "1", "1"]}}, "fused_ops": {"list": {"s": ["Qmlhc0FkZA==", "UmVsdQ=="]}}, "padding": {"s": "VkFMSUQ="}, "data_format": {"s": "TkhXQw=="}, "use_cudnn_on_gpu": {"b": true}, "epsilon": {"f": 0.0}}}, {"name": "StatefulPartitionedCall/model1/zero_padding2d_ZeroPadding2D18/Pad", "op": "Pad", "input": ["StatefulPartitionedCall/model1/re_lu_ReLU17/Relu", "StatefulPartitionedCall/model1/zero_padding2d_ZeroPadding2D18/Pad/paddings"], "attr": {"Tpaddings": {"type": "DT_INT32"}, "T": {"type": "DT_FLOAT"}}}, {"name": "StatefulPartitionedCall/model1/depthwise_conv2d_DepthwiseConv2D17/depthwise", "op": "FusedDepthwiseConv2dNative", "input": ["StatefulPartitionedCall/model1/zero_padding2d_ZeroPadding2D18/Pad", "StatefulPartitionedCall/model1/depthwise_conv2d_DepthwiseConv2D17/depthwise/ReadVariableOp", "StatefulPartitionedCall/model1/depthwise_conv2d_DepthwiseConv2D17/BiasAdd/ReadVariableOp"], "attr": {"explicit_paddings": {"list": {}}, "dilations": {"list": {"i": ["1", "1", "1", "1"]}}, "fused_ops": {"list": {"s": ["Qmlhc0FkZA=="]}}, "strides": {"list": {"i": ["1", "1", "1", "1"]}}, "padding": {"s": "VkFMSUQ="}, "num_args": {"i": "1"}, "T": {"type": "DT_FLOAT"}, "data_format": {"s": "TkhXQw=="}}}, {"name": "StatefulPartitionedCall/model1/conv2d_Conv2D28/BiasAdd", "op": "_FusedConv2D", "input": ["StatefulPartitionedCall/model1/depthwise_conv2d_DepthwiseConv2D17/depthwise", "StatefulPartitionedCall/model1/conv2d_Conv2D28/Conv2D/ReadVariableOp", "StatefulPartitionedCall/model1/conv2d_Conv2D28/BiasAdd/ReadVariableOp"], "device": "/device:CPU:0", "attr": {"epsilon": {"f": 0.0}, "padding": {"s": "VkFMSUQ="}, "T": {"type": "DT_FLOAT"}, "data_format": {"s": "TkhXQw=="}, "strides": {"list": {"i": ["1", "1", "1", "1"]}}, "num_args": {"i": "1"}, "dilations": {"list": {"i": ["1", "1", "1", "1"]}}, "fused_ops": {"list": {"s": ["Qmlhc0FkZA=="]}}, "explicit_paddings": {"list": {}}, "use_cudnn_on_gpu": {"b": true}}}, {"name": "StatefulPartitionedCall/model1/add_Add11/add", "op": "AddV2", "input": ["StatefulPartitionedCall/model1/conv2d_Conv2D28/BiasAdd", "StatefulPartitionedCall/model1/conv2d_Conv2D29/Conv2D"], "attr": {"T": {"type": "DT_FLOAT"}}}, {"name": "StatefulPartitionedCall/model1/re_lu_ReLU18/Relu", "op": "Relu", "input": ["StatefulPartitionedCall/model1/add_Add11/add"], "attr": {"T": {"type": "DT_FLOAT"}}}, {"name": "StatefulPartitionedCall/model1/zero_padding2d_ZeroPadding2D25/Pad", "op": "Pad", "input": ["StatefulPartitionedCall/model1/re_lu_ReLU18/Relu", "StatefulPartitionedCall/model1/zero_padding2d_ZeroPadding2D25/Pad/paddings"], "attr": {"T": {"type": "DT_FLOAT"}, "Tpaddings": {"type": "DT_INT32"}}}, {"name": "StatefulPartitionedCall/model1/zero_padding2d_ZeroPadding2D26/Pad", "op": "Pad", "input": ["StatefulPartitionedCall/model1/re_lu_ReLU18/Relu", "StatefulPartitionedCall/model1/zero_padding2d_ZeroPadding2D26/Pad/paddings"], "attr": {"T": {"type": "DT_FLOAT"}, "Tpaddings": {"type": "DT_INT32"}}}, {"name": "StatefulPartitionedCall/model1/zero_padding2d_ZeroPadding2D19/Pad", "op": "Pad", "input": ["StatefulPartitionedCall/model1/re_lu_ReLU18/Relu", "StatefulPartitionedCall/model1/zero_padding2d_ZeroPadding2D19/Pad/paddings"], "attr": {"T": {"type": "DT_FLOAT"}, "Tpaddings": {"type": "DT_INT32"}}}, {"name": "StatefulPartitionedCall/model1/max_pooling2d_MaxPooling2D4/MaxPool", "op": "MaxPool", "input": ["StatefulPartitionedCall/model1/re_lu_ReLU18/Relu"], "attr": {"ksize": {"list": {"i": ["1", "2", "2", "1"]}}, "explicit_paddings": {"list": {}}, "padding": {"s": "VkFMSUQ="}, "data_format": {"s": "TkhXQw=="}, "strides": {"list": {"i": ["1", "2", "2", "1"]}}, "T": {"type": "DT_FLOAT"}}}, {"name": "StatefulPartitionedCall/model1/conv2d_Conv2D39/Conv2D", "op": "Conv2D", "input": ["StatefulPartitionedCall/model1/zero_padding2d_ZeroPadding2D25/Pad", "StatefulPartitionedCall/model1/conv2d_Conv2D39/Conv2D/ReadVariableOp"], "device": "/device:CPU:0", "attr": {"padding": {"s": "VkFMSUQ="}, "T": {"type": "DT_FLOAT"}, "strides": {"list": {"i": ["1", "1", "1", "1"]}}, "data_format": {"s": "TkhXQw=="}, "explicit_paddings": {"list": {}}, "dilations": {"list": {"i": ["1", "1", "1", "1"]}}, "use_cudnn_on_gpu": {"b": true}}}, {"name": "StatefulPartitionedCall/model1/conv2d_Conv2D40/BiasAdd", "op": "_FusedConv2D", "input": ["StatefulPartitionedCall/model1/zero_padding2d_ZeroPadding2D26/Pad", "StatefulPartitionedCall/model1/conv2d_Conv2D40/Conv2D/ReadVariableOp", "StatefulPartitionedCall/model1/conv2d_Conv2D40/BiasAdd/ReadVariableOp"], "device": "/device:CPU:0", "attr": {"dilations": {"list": {"i": ["1", "1", "1", "1"]}}, "epsilon": {"f": 0.0}, "num_args": {"i": "1"}, "data_format": {"s": "TkhXQw=="}, "padding": {"s": "VkFMSUQ="}, "explicit_paddings": {"list": {}}, "fused_ops": {"list": {"s": ["Qmlhc0FkZA=="]}}, "T": {"type": "DT_FLOAT"}, "use_cudnn_on_gpu": {"b": true}, "strides": {"list": {"i": ["1", "1", "1", "1"]}}}}, {"name": "StatefulPartitionedCall/model1/depthwise_conv2d_DepthwiseConv2D18/depthwise", "op": "FusedDepthwiseConv2dNative", "input": ["StatefulPartitionedCall/model1/zero_padding2d_ZeroPadding2D19/Pad", "StatefulPartitionedCall/model1/depthwise_conv2d_DepthwiseConv2D18/depthwise/ReadVariableOp", "StatefulPartitionedCall/model1/depthwise_conv2d_DepthwiseConv2D18/BiasAdd/ReadVariableOp"], "attr": {"T": {"type": "DT_FLOAT"}, "dilations": {"list": {"i": ["1", "1", "1", "1"]}}, "strides": {"list": {"i": ["1", "2", "2", "1"]}}, "data_format": {"s": "TkhXQw=="}, "num_args": {"i": "1"}, "padding": {"s": "VkFMSUQ="}, "explicit_paddings": {"list": {}}, "fused_ops": {"list": {"s": ["Qmlhc0FkZA=="]}}}}, {"name": "StatefulPartitionedCall/model1/conv2d_Conv2D32/Conv2D", "op": "Conv2D", "input": ["StatefulPartitionedCall/model1/max_pooling2d_MaxPooling2D4/MaxPool", "StatefulPartitionedCall/model1/conv2d_Conv2D32/Conv2D/ReadVariableOp"], "device": "/device:CPU:0", "attr": {"dilations": {"list": {"i": ["1", "1", "1", "1"]}}, "T": {"type": "DT_FLOAT"}, "data_format": {"s": "TkhXQw=="}, "explicit_paddings": {"list": {}}, "use_cudnn_on_gpu": {"b": true}, "padding": {"s": "VkFMSUQ="}, "strides": {"list": {"i": ["1", "1", "1", "1"]}}}}, {"name": "Identity", "op": "Identity", "input": ["StatefulPartitionedCall/model1/conv2d_Conv2D39/Conv2D"], "attr": {"T": {"type": "DT_FLOAT"}}}, {"name": "Identity_1", "op": "Identity", "input": ["StatefulPartitionedCall/model1/conv2d_Conv2D40/BiasAdd"], "attr": {"T": {"type": "DT_FLOAT"}}}, {"name": "StatefulPartitionedCall/model1/re_lu_ReLU19/Relu", "op": "_FusedConv2D", "input": ["StatefulPartitionedCall/model1/depthwise_conv2d_DepthwiseConv2D18/depthwise", "StatefulPartitionedCall/model1/conv2d_Conv2D30/Conv2D/ReadVariableOp", "StatefulPartitionedCall/model1/conv2d_Conv2D30/BiasAdd/ReadVariableOp"], "device": "/device:CPU:0", "attr": {"use_cudnn_on_gpu": {"b": true}, "fused_ops": {"list": {"s": ["Qmlhc0FkZA==", "UmVsdQ=="]}}, "num_args": {"i": "1"}, "epsilon": {"f": 0.0}, "data_format": {"s": "TkhXQw=="}, "padding": {"s": "VkFMSUQ="}, "strides": {"list": {"i": ["1", "1", "1", "1"]}}, "dilations": {"list": {"i": ["1", "1", "1", "1"]}}, "explicit_paddings": {"list": {}}, "T": {"type": "DT_FLOAT"}}}, {"name": "StatefulPartitionedCall/model1/zero_padding2d_ZeroPadding2D20/Pad", "op": "Pad", "input": ["StatefulPartitionedCall/model1/re_lu_ReLU19/Relu", "StatefulPartitionedCall/model1/zero_padding2d_ZeroPadding2D20/Pad/paddings"], "attr": {"T": {"type": "DT_FLOAT"}, "Tpaddings": {"type": "DT_INT32"}}}, {"name": "StatefulPartitionedCall/model1/depthwise_conv2d_DepthwiseConv2D19/depthwise", "op": "FusedDepthwiseConv2dNative", "input": ["StatefulPartitionedCall/model1/zero_padding2d_ZeroPadding2D20/Pad", "StatefulPartitionedCall/model1/depthwise_conv2d_DepthwiseConv2D19/depthwise/ReadVariableOp", "StatefulPartitionedCall/model1/depthwise_conv2d_DepthwiseConv2D19/BiasAdd/ReadVariableOp"], "attr": {"dilations": {"list": {"i": ["1", "1", "1", "1"]}}, "data_format": {"s": "TkhXQw=="}, "fused_ops": {"list": {"s": ["Qmlhc0FkZA=="]}}, "padding": {"s": "VkFMSUQ="}, "num_args": {"i": "1"}, "explicit_paddings": {"list": {}}, "T": {"type": "DT_FLOAT"}, "strides": {"list": {"i": ["1", "1", "1", "1"]}}}}, {"name": "StatefulPartitionedCall/model1/conv2d_Conv2D31/BiasAdd", "op": "_FusedConv2D", "input": ["StatefulPartitionedCall/model1/depthwise_conv2d_DepthwiseConv2D19/depthwise", "StatefulPartitionedCall/model1/conv2d_Conv2D31/Conv2D/ReadVariableOp", "StatefulPartitionedCall/model1/conv2d_Conv2D31/BiasAdd/ReadVariableOp"], "device": "/device:CPU:0", "attr": {"num_args": {"i": "1"}, "use_cudnn_on_gpu": {"b": true}, "padding": {"s": "VkFMSUQ="}, "strides": {"list": {"i": ["1", "1", "1", "1"]}}, "T": {"type": "DT_FLOAT"}, "explicit_paddings": {"list": {}}, "data_format": {"s": "TkhXQw=="}, "dilations": {"list": {"i": ["1", "1", "1", "1"]}}, "epsilon": {"f": 0.0}, "fused_ops": {"list": {"s": ["Qmlhc0FkZA=="]}}}}, {"name": "StatefulPartitionedCall/model1/add_Add12/add", "op": "AddV2", "input": ["StatefulPartitionedCall/model1/conv2d_Conv2D31/BiasAdd", "StatefulPartitionedCall/model1/conv2d_Conv2D32/Conv2D"], "attr": {"T": {"type": "DT_FLOAT"}}}, {"name": "StatefulPartitionedCall/model1/re_lu_ReLU20/Relu", "op": "Relu", "input": ["StatefulPartitionedCall/model1/add_Add12/add"], "attr": {"T": {"type": "DT_FLOAT"}}}, {"name": "StatefulPartitionedCall/model1/zero_padding2d_ZeroPadding2D21/Pad", "op": "Pad", "input": ["StatefulPartitionedCall/model1/re_lu_ReLU20/Relu", "StatefulPartitionedCall/model1/zero_padding2d_ZeroPadding2D21/Pad/paddings"], "attr": {"T": {"type": "DT_FLOAT"}, "Tpaddings": {"type": "DT_INT32"}}}, {"name": "StatefulPartitionedCall/model1/conv2d_Conv2D35/Conv2D", "op": "Conv2D", "input": ["StatefulPartitionedCall/model1/re_lu_ReLU20/Relu", "StatefulPartitionedCall/model1/conv2d_Conv2D35/Conv2D/ReadVariableOp"], "device": "/device:CPU:0", "attr": {"use_cudnn_on_gpu": {"b": true}, "data_format": {"s": "TkhXQw=="}, "padding": {"s": "VkFMSUQ="}, "dilations": {"list": {"i": ["1", "1", "1", "1"]}}, "explicit_paddings": {"list": {}}, "strides": {"list": {"i": ["1", "1", "1", "1"]}}, "T": {"type": "DT_FLOAT"}}}, {"name": "StatefulPartitionedCall/model1/depthwise_conv2d_DepthwiseConv2D20/depthwise", "op": "FusedDepthwiseConv2dNative", "input": ["StatefulPartitionedCall/model1/zero_padding2d_ZeroPadding2D21/Pad", "StatefulPartitionedCall/model1/depthwise_conv2d_DepthwiseConv2D20/depthwise/ReadVariableOp", "StatefulPartitionedCall/model1/depthwise_conv2d_DepthwiseConv2D20/BiasAdd/ReadVariableOp"], "attr": {"dilations": {"list": {"i": ["1", "1", "1", "1"]}}, "num_args": {"i": "1"}, "fused_ops": {"list": {"s": ["Qmlhc0FkZA=="]}}, "explicit_paddings": {"list": {}}, "T": {"type": "DT_FLOAT"}, "strides": {"list": {"i": ["1", "1", "1", "1"]}}, "data_format": {"s": "TkhXQw=="}, "padding": {"s": "VkFMSUQ="}}}, {"name": "StatefulPartitionedCall/model1/re_lu_ReLU21/Relu", "op": "_FusedConv2D", "input": ["StatefulPartitionedCall/model1/depthwise_conv2d_DepthwiseConv2D20/depthwise", "StatefulPartitionedCall/model1/conv2d_Conv2D33/Conv2D/ReadVariableOp", "StatefulPartitionedCall/model1/conv2d_Conv2D33/BiasAdd/ReadVariableOp"], "device": "/device:CPU:0", "attr": {"dilations": {"list": {"i": ["1", "1", "1", "1"]}}, "epsilon": {"f": 0.0}, "padding": {"s": "VkFMSUQ="}, "fused_ops": {"list": {"s": ["Qmlhc0FkZA==", "UmVsdQ=="]}}, "strides": {"list": {"i": ["1", "1", "1", "1"]}}, "num_args": {"i": "1"}, "explicit_paddings": {"list": {}}, "use_cudnn_on_gpu": {"b": true}, "T": {"type": "DT_FLOAT"}, "data_format": {"s": "TkhXQw=="}}}, {"name": "StatefulPartitionedCall/model1/zero_padding2d_ZeroPadding2D22/Pad", "op": "Pad", "input": ["StatefulPartitionedCall/model1/re_lu_ReLU21/Relu", "StatefulPartitionedCall/model1/zero_padding2d_ZeroPadding2D22/Pad/paddings"], "attr": {"T": {"type": "DT_FLOAT"}, "Tpaddings": {"type": "DT_INT32"}}}, {"name": "StatefulPartitionedCall/model1/depthwise_conv2d_DepthwiseConv2D21/depthwise", "op": "FusedDepthwiseConv2dNative", "input": ["StatefulPartitionedCall/model1/zero_padding2d_ZeroPadding2D22/Pad", "StatefulPartitionedCall/model1/depthwise_conv2d_DepthwiseConv2D21/depthwise/ReadVariableOp", "StatefulPartitionedCall/model1/depthwise_conv2d_DepthwiseConv2D21/BiasAdd/ReadVariableOp"], "attr": {"T": {"type": "DT_FLOAT"}, "fused_ops": {"list": {"s": ["Qmlhc0FkZA=="]}}, "explicit_paddings": {"list": {}}, "dilations": {"list": {"i": ["1", "1", "1", "1"]}}, "strides": {"list": {"i": ["1", "1", "1", "1"]}}, "data_format": {"s": "TkhXQw=="}, "num_args": {"i": "1"}, "padding": {"s": "VkFMSUQ="}}}, {"name": "StatefulPartitionedCall/model1/conv2d_Conv2D34/BiasAdd", "op": "_FusedConv2D", "input": ["StatefulPartitionedCall/model1/depthwise_conv2d_DepthwiseConv2D21/depthwise", "StatefulPartitionedCall/model1/conv2d_Conv2D34/Conv2D/ReadVariableOp", "StatefulPartitionedCall/model1/conv2d_Conv2D34/BiasAdd/ReadVariableOp"], "device": "/device:CPU:0", "attr": {"strides": {"list": {"i": ["1", "1", "1", "1"]}}, "fused_ops": {"list": {"s": ["Qmlhc0FkZA=="]}}, "explicit_paddings": {"list": {}}, "num_args": {"i": "1"}, "padding": {"s": "VkFMSUQ="}, "dilations": {"list": {"i": ["1", "1", "1", "1"]}}, "use_cudnn_on_gpu": {"b": true}, "T": {"type": "DT_FLOAT"}, "epsilon": {"f": 0.0}, "data_format": {"s": "TkhXQw=="}}}, {"name": "StatefulPartitionedCall/model1/add_Add13/add", "op": "AddV2", "input": ["StatefulPartitionedCall/model1/conv2d_Conv2D34/BiasAdd", "StatefulPartitionedCall/model1/conv2d_Conv2D35/Conv2D"], "attr": {"T": {"type": "DT_FLOAT"}}}, {"name": "StatefulPartitionedCall/model1/re_lu_ReLU22/Relu", "op": "Relu", "input": ["StatefulPartitionedCall/model1/add_Add13/add"], "attr": {"T": {"type": "DT_FLOAT"}}}, {"name": "StatefulPartitionedCall/model1/zero_padding2d_ZeroPadding2D23/Pad", "op": "Pad", "input": ["StatefulPartitionedCall/model1/re_lu_ReLU22/Relu", "StatefulPartitionedCall/model1/zero_padding2d_ZeroPadding2D23/Pad/paddings"], "attr": {"T": {"type": "DT_FLOAT"}, "Tpaddings": {"type": "DT_INT32"}}}, {"name": "StatefulPartitionedCall/model1/conv2d_Conv2D38/Conv2D", "op": "Conv2D", "input": ["StatefulPartitionedCall/model1/re_lu_ReLU22/Relu", "StatefulPartitionedCall/model1/conv2d_Conv2D38/Conv2D/ReadVariableOp"], "device": "/device:CPU:0", "attr": {"explicit_paddings": {"list": {}}, "T": {"type": "DT_FLOAT"}, "data_format": {"s": "TkhXQw=="}, "strides": {"list": {"i": ["1", "1", "1", "1"]}}, "use_cudnn_on_gpu": {"b": true}, "dilations": {"list": {"i": ["1", "1", "1", "1"]}}, "padding": {"s": "VkFMSUQ="}}}, {"name": "StatefulPartitionedCall/model1/depthwise_conv2d_DepthwiseConv2D22/depthwise", "op": "FusedDepthwiseConv2dNative", "input": ["StatefulPartitionedCall/model1/zero_padding2d_ZeroPadding2D23/Pad", "StatefulPartitionedCall/model1/depthwise_conv2d_DepthwiseConv2D22/depthwise/ReadVariableOp", "StatefulPartitionedCall/model1/depthwise_conv2d_DepthwiseConv2D22/BiasAdd/ReadVariableOp"], "attr": {"dilations": {"list": {"i": ["1", "1", "1", "1"]}}, "strides": {"list": {"i": ["1", "1", "1", "1"]}}, "explicit_paddings": {"list": {}}, "num_args": {"i": "1"}, "fused_ops": {"list": {"s": ["Qmlhc0FkZA=="]}}, "padding": {"s": "VkFMSUQ="}, "T": {"type": "DT_FLOAT"}, "data_format": {"s": "TkhXQw=="}}}, {"name": "StatefulPartitionedCall/model1/re_lu_ReLU23/Relu", "op": "_FusedConv2D", "input": ["StatefulPartitionedCall/model1/depthwise_conv2d_DepthwiseConv2D22/depthwise", "StatefulPartitionedCall/model1/conv2d_Conv2D36/Conv2D/ReadVariableOp", "StatefulPartitionedCall/model1/conv2d_Conv2D36/BiasAdd/ReadVariableOp"], "device": "/device:CPU:0", "attr": {"strides": {"list": {"i": ["1", "1", "1", "1"]}}, "epsilon": {"f": 0.0}, "dilations": {"list": {"i": ["1", "1", "1", "1"]}}, "padding": {"s": "VkFMSUQ="}, "num_args": {"i": "1"}, "data_format": {"s": "TkhXQw=="}, "fused_ops": {"list": {"s": ["Qmlhc0FkZA==", "UmVsdQ=="]}}, "use_cudnn_on_gpu": {"b": true}, "T": {"type": "DT_FLOAT"}, "explicit_paddings": {"list": {}}}}, {"name": "StatefulPartitionedCall/model1/zero_padding2d_ZeroPadding2D24/Pad", "op": "Pad", "input": ["StatefulPartitionedCall/model1/re_lu_ReLU23/Relu", "StatefulPartitionedCall/model1/zero_padding2d_ZeroPadding2D24/Pad/paddings"], "attr": {"T": {"type": "DT_FLOAT"}, "Tpaddings": {"type": "DT_INT32"}}}, {"name": "StatefulPartitionedCall/model1/depthwise_conv2d_DepthwiseConv2D23/depthwise", "op": "FusedDepthwiseConv2dNative", "input": ["StatefulPartitionedCall/model1/zero_padding2d_ZeroPadding2D24/Pad", "StatefulPartitionedCall/model1/depthwise_conv2d_DepthwiseConv2D23/depthwise/ReadVariableOp", "StatefulPartitionedCall/model1/depthwise_conv2d_DepthwiseConv2D23/BiasAdd/ReadVariableOp"], "attr": {"padding": {"s": "VkFMSUQ="}, "num_args": {"i": "1"}, "strides": {"list": {"i": ["1", "1", "1", "1"]}}, "T": {"type": "DT_FLOAT"}, "dilations": {"list": {"i": ["1", "1", "1", "1"]}}, "explicit_paddings": {"list": {}}, "fused_ops": {"list": {"s": ["Qmlhc0FkZA=="]}}, "data_format": {"s": "TkhXQw=="}}}, {"name": "StatefulPartitionedCall/model1/conv2d_Conv2D37/BiasAdd", "op": "_FusedConv2D", "input": ["StatefulPartitionedCall/model1/depthwise_conv2d_DepthwiseConv2D23/depthwise", "StatefulPartitionedCall/model1/conv2d_Conv2D37/Conv2D/ReadVariableOp", "StatefulPartitionedCall/model1/conv2d_Conv2D37/BiasAdd/ReadVariableOp"], "device": "/device:CPU:0", "attr": {"num_args": {"i": "1"}, "dilations": {"list": {"i": ["1", "1", "1", "1"]}}, "T": {"type": "DT_FLOAT"}, "data_format": {"s": "TkhXQw=="}, "epsilon": {"f": 0.0}, "fused_ops": {"list": {"s": ["Qmlhc0FkZA=="]}}, "use_cudnn_on_gpu": {"b": true}, "padding": {"s": "VkFMSUQ="}, "explicit_paddings": {"list": {}}, "strides": {"list": {"i": ["1", "1", "1", "1"]}}}}, {"name": "StatefulPartitionedCall/model1/add_Add14/add", "op": "AddV2", "input": ["StatefulPartitionedCall/model1/conv2d_Conv2D37/BiasAdd", "StatefulPartitionedCall/model1/conv2d_Conv2D38/Conv2D"], "attr": {"T": {"type": "DT_FLOAT"}}}, {"name": "StatefulPartitionedCall/model1/re_lu_ReLU24/Relu", "op": "Relu", "input": ["StatefulPartitionedCall/model1/add_Add14/add"], "attr": {"T": {"type": "DT_FLOAT"}}}, {"name": "StatefulPartitionedCall/model1/zero_padding2d_ZeroPadding2D27/Pad", "op": "Pad", "input": ["StatefulPartitionedCall/model1/re_lu_ReLU24/Relu", "StatefulPartitionedCall/model1/zero_padding2d_ZeroPadding2D27/Pad/paddings"], "attr": {"Tpaddings": {"type": "DT_INT32"}, "T": {"type": "DT_FLOAT"}}}, {"name": "StatefulPartitionedCall/model1/zero_padding2d_ZeroPadding2D28/Pad", "op": "Pad", "input": ["StatefulPartitionedCall/model1/re_lu_ReLU24/Relu", "StatefulPartitionedCall/model1/zero_padding2d_ZeroPadding2D28/Pad/paddings"], "attr": {"Tpaddings": {"type": "DT_INT32"}, "T": {"type": "DT_FLOAT"}}}, {"name": "StatefulPartitionedCall/model1/conv2d_Conv2D41/BiasAdd", "op": "_FusedConv2D", "input": ["StatefulPartitionedCall/model1/zero_padding2d_ZeroPadding2D27/Pad", "StatefulPartitionedCall/model1/conv2d_Conv2D41/Conv2D/ReadVariableOp", "StatefulPartitionedCall/model1/conv2d_Conv2D41/BiasAdd/ReadVariableOp"], "device": "/device:CPU:0", "attr": {"num_args": {"i": "1"}, "padding": {"s": "VkFMSUQ="}, "strides": {"list": {"i": ["1", "1", "1", "1"]}}, "data_format": {"s": "TkhXQw=="}, "explicit_paddings": {"list": {}}, "T": {"type": "DT_FLOAT"}, "fused_ops": {"list": {"s": ["Qmlhc0FkZA=="]}}, "use_cudnn_on_gpu": {"b": true}, "dilations": {"list": {"i": ["1", "1", "1", "1"]}}, "epsilon": {"f": 0.0}}}, {"name": "StatefulPartitionedCall/model1/conv2d_Conv2D42/BiasAdd", "op": "_FusedConv2D", "input": ["StatefulPartitionedCall/model1/zero_padding2d_ZeroPadding2D28/Pad", "StatefulPartitionedCall/model1/conv2d_Conv2D42/Conv2D/ReadVariableOp", "StatefulPartitionedCall/model1/conv2d_Conv2D42/BiasAdd/ReadVariableOp"], "device": "/device:CPU:0", "attr": {"padding": {"s": "VkFMSUQ="}, "dilations": {"list": {"i": ["1", "1", "1", "1"]}}, "T": {"type": "DT_FLOAT"}, "use_cudnn_on_gpu": {"b": true}, "num_args": {"i": "1"}, "fused_ops": {"list": {"s": ["Qmlhc0FkZA=="]}}, "data_format": {"s": "TkhXQw=="}, "explicit_paddings": {"list": {}}, "strides": {"list": {"i": ["1", "1", "1", "1"]}}, "epsilon": {"f": 0.0}}}, {"name": "Identity_2", "op": "Identity", "input": ["StatefulPartitionedCall/model1/conv2d_Conv2D41/BiasAdd"], "attr": {"T": {"type": "DT_FLOAT"}}}, {"name": "Identity_3", "op": "Identity", "input": ["StatefulPartitionedCall/model1/conv2d_Conv2D42/BiasAdd"], "attr": {"T": {"type": "DT_FLOAT"}}}], "library": {}, "versions": {"producer": 561}}, "weightsManifest": [{"paths": ["group1-shard1of1.bin"], "weights": [{"name": "StatefulPartitionedCall/model1/zero_padding2d_ZeroPadding2D25/Pad/paddings", "shape": [4, 2], "dtype": "int32"}, {"name": "StatefulPartitionedCall/model1/conv2d_Conv2D39/Conv2D/ReadVariableOp", "shape": [3, 3, 56, 24], "dtype": "float32"}, {"name": "StatefulPartitionedCall/model1/zero_padding2d_ZeroPadding2D26/Pad/paddings", "shape": [4, 2], "dtype": "int32"}, {"name": "StatefulPartitionedCall/model1/conv2d_Conv2D40/Conv2D/ReadVariableOp", "shape": [3, 3, 56, 6], "dtype": "float32"}, {"name": "StatefulPartitionedCall/model1/conv2d_Conv2D40/BiasAdd/ReadVariableOp", "shape": [6], "dtype": "float32"}, {"name": "StatefulPartitionedCall/model1/zero_padding2d_ZeroPadding2D27/Pad/paddings", "shape": [4, 2], "dtype": "int32"}, {"name": "StatefulPartitionedCall/model1/conv2d_Conv2D41/Conv2D/ReadVariableOp", "shape": [3, 3, 56, 72], "dtype": "float32"}, {"name": "StatefulPartitionedCall/model1/conv2d_Conv2D41/BiasAdd/ReadVariableOp", "shape": [72], "dtype": "float32"}, {"name": "StatefulPartitionedCall/model1/zero_padding2d_ZeroPadding2D23/Pad/paddings", "shape": [4, 2], "dtype": "int32"}, {"name": "StatefulPartitionedCall/model1/depthwise_conv2d_DepthwiseConv2D22/depthwise/ReadVariableOp", "shape": [3, 3, 56, 1], "dtype": "float32"}, {"name": "StatefulPartitionedCall/model1/depthwise_conv2d_DepthwiseConv2D22/BiasAdd/ReadVariableOp", "shape": [56], "dtype": "float32"}, {"name": "StatefulPartitionedCall/model1/conv2d_Conv2D36/Conv2D/ReadVariableOp", "shape": [1, 1, 56, 16], "dtype": "float32"}, {"name": "StatefulPartitionedCall/model1/conv2d_Conv2D36/BiasAdd/ReadVariableOp", "shape": [16], "dtype": "float32"}, {"name": "StatefulPartitionedCall/model1/zero_padding2d_ZeroPadding2D24/Pad/paddings", "shape": [4, 2], "dtype": "int32"}, {"name": "StatefulPartitionedCall/model1/depthwise_conv2d_DepthwiseConv2D23/depthwise/ReadVariableOp", "shape": [3, 3, 16, 1], "dtype": "float32"}, {"name": "StatefulPartitionedCall/model1/depthwise_conv2d_DepthwiseConv2D23/BiasAdd/ReadVariableOp", "shape": [16], "dtype": "float32"}, {"name": "StatefulPartitionedCall/model1/conv2d_Conv2D37/Conv2D/ReadVariableOp", "shape": [1, 1, 16, 56], "dtype": "float32"}, {"name": "StatefulPartitionedCall/model1/conv2d_Conv2D37/BiasAdd/ReadVariableOp", "shape": [56], "dtype": "float32"}, {"name": "StatefulPartitionedCall/model1/zero_padding2d_ZeroPadding2D21/Pad/paddings", "shape": [4, 2], "dtype": "int32"}, {"name": "StatefulPartitionedCall/model1/depthwise_conv2d_DepthwiseConv2D20/depthwise/ReadVariableOp", "shape": [3, 3, 56, 1], "dtype": "float32"}, {"name": "StatefulPartitionedCall/model1/depthwise_conv2d_DepthwiseConv2D20/BiasAdd/ReadVariableOp", "shape": [56], "dtype": "float32"}, {"name": "StatefulPartitionedCall/model1/conv2d_Conv2D33/Conv2D/ReadVariableOp", "shape": [1, 1, 56, 16], "dtype": "float32"}, {"name": "StatefulPartitionedCall/model1/conv2d_Conv2D33/BiasAdd/ReadVariableOp", "shape": [16], "dtype": "float32"}, {"name": "StatefulPartitionedCall/model1/zero_padding2d_ZeroPadding2D22/Pad/paddings", "shape": [4, 2], "dtype": "int32"}, {"name": "StatefulPartitionedCall/model1/depthwise_conv2d_DepthwiseConv2D21/depthwise/ReadVariableOp", "shape": [3, 3, 16, 1], "dtype": "float32"}, {"name": "StatefulPartitionedCall/model1/depthwise_conv2d_DepthwiseConv2D21/BiasAdd/ReadVariableOp", "shape": [16], "dtype": "float32"}, {"name": "StatefulPartitionedCall/model1/conv2d_Conv2D34/Conv2D/ReadVariableOp", "shape": [1, 1, 16, 56], "dtype": "float32"}, {"name": "StatefulPartitionedCall/model1/conv2d_Conv2D34/BiasAdd/ReadVariableOp", "shape": [56], "dtype": "float32"}, {"name": "StatefulPartitionedCall/model1/zero_padding2d_ZeroPadding2D19/Pad/paddings", "shape": [4, 2], "dtype": "int32"}, {"name": "StatefulPartitionedCall/model1/depthwise_conv2d_DepthwiseConv2D18/depthwise/ReadVariableOp", "shape": [3, 3, 56, 1], "dtype": "float32"}, {"name": "StatefulPartitionedCall/model1/depthwise_conv2d_DepthwiseConv2D18/BiasAdd/ReadVariableOp", "shape": [56], "dtype": "float32"}, {"name": "StatefulPartitionedCall/model1/conv2d_Conv2D30/Conv2D/ReadVariableOp", "shape": [1, 1, 56, 16], "dtype": "float32"}, {"name": "StatefulPartitionedCall/model1/conv2d_Conv2D30/BiasAdd/ReadVariableOp", "shape": [16], "dtype": "float32"}, {"name": "StatefulPartitionedCall/model1/zero_padding2d_ZeroPadding2D20/Pad/paddings", "shape": [4, 2], "dtype": "int32"}, {"name": "StatefulPartitionedCall/model1/depthwise_conv2d_DepthwiseConv2D19/depthwise/ReadVariableOp", "shape": [3, 3, 16, 1], "dtype": "float32"}, {"name": "StatefulPartitionedCall/model1/depthwise_conv2d_DepthwiseConv2D19/BiasAdd/ReadVariableOp", "shape": [16], "dtype": "float32"}, {"name": "StatefulPartitionedCall/model1/conv2d_Conv2D31/Conv2D/ReadVariableOp", "shape": [1, 1, 16, 56], "dtype": "float32"}, {"name": "StatefulPartitionedCall/model1/conv2d_Conv2D31/BiasAdd/ReadVariableOp", "shape": [56], "dtype": "float32"}, {"name": "StatefulPartitionedCall/model1/zero_padding2d_ZeroPadding2D17/Pad/paddings", "shape": [4, 2], "dtype": "int32"}, {"name": "StatefulPartitionedCall/model1/depthwise_conv2d_DepthwiseConv2D16/depthwise/ReadVariableOp", "shape": [3, 3, 56, 1], "dtype": "float32"}, {"name": "StatefulPartitionedCall/model1/depthwise_conv2d_DepthwiseConv2D16/BiasAdd/ReadVariableOp", "shape": [56], "dtype": "float32"}, {"name": "StatefulPartitionedCall/model1/conv2d_Conv2D27/Conv2D/ReadVariableOp", "shape": [1, 1, 56, 16], "dtype": "float32"}, {"name": "StatefulPartitionedCall/model1/conv2d_Conv2D27/BiasAdd/ReadVariableOp", "shape": [16], "dtype": "float32"}, {"name": "StatefulPartitionedCall/model1/zero_padding2d_ZeroPadding2D18/Pad/paddings", "shape": [4, 2], "dtype": "int32"}, {"name": "StatefulPartitionedCall/model1/depthwise_conv2d_DepthwiseConv2D17/depthwise/ReadVariableOp", "shape": [3, 3, 16, 1], "dtype": "float32"}, {"name": "StatefulPartitionedCall/model1/depthwise_conv2d_DepthwiseConv2D17/BiasAdd/ReadVariableOp", "shape": [16], "dtype": "float32"}, {"name": "StatefulPartitionedCall/model1/conv2d_Conv2D28/Conv2D/ReadVariableOp", "shape": [1, 1, 16, 56], "dtype": "float32"}, {"name": "StatefulPartitionedCall/model1/conv2d_Conv2D28/BiasAdd/ReadVariableOp", "shape": [56], "dtype": "float32"}, {"name": "StatefulPartitionedCall/model1/zero_padding2d_ZeroPadding2D15/Pad/paddings", "shape": [4, 2], "dtype": "int32"}, {"name": "StatefulPartitionedCall/model1/depthwise_conv2d_DepthwiseConv2D14/depthwise/ReadVariableOp", "shape": [3, 3, 56, 1], "dtype": "float32"}, {"name": "StatefulPartitionedCall/model1/depthwise_conv2d_DepthwiseConv2D14/BiasAdd/ReadVariableOp", "shape": [56], "dtype": "float32"}, {"name": "StatefulPartitionedCall/model1/conv2d_Conv2D24/Conv2D/ReadVariableOp", "shape": [1, 1, 56, 16], "dtype": "float32"}, {"name": "StatefulPartitionedCall/model1/conv2d_Conv2D24/BiasAdd/ReadVariableOp", "shape": [16], "dtype": "float32"}, {"name": "StatefulPartitionedCall/model1/zero_padding2d_ZeroPadding2D16/Pad/paddings", "shape": [4, 2], "dtype": "int32"}, {"name": "StatefulPartitionedCall/model1/depthwise_conv2d_DepthwiseConv2D15/depthwise/ReadVariableOp", "shape": [3, 3, 16, 1], "dtype": "float32"}, {"name": "StatefulPartitionedCall/model1/depthwise_conv2d_DepthwiseConv2D15/BiasAdd/ReadVariableOp", "shape": [16], "dtype": "float32"}, {"name": "StatefulPartitionedCall/model1/conv2d_Conv2D25/Conv2D/ReadVariableOp", "shape": [1, 1, 16, 56], "dtype": "float32"}, {"name": "StatefulPartitionedCall/model1/conv2d_Conv2D25/BiasAdd/ReadVariableOp", "shape": [56], "dtype": "float32"}, {"name": "StatefulPartitionedCall/model1/zero_padding2d_ZeroPadding2D13/Pad/paddings", "shape": [4, 2], "dtype": "int32"}, {"name": "StatefulPartitionedCall/model1/depthwise_conv2d_DepthwiseConv2D12/depthwise/ReadVariableOp", "shape": [3, 3, 56, 1], "dtype": "float32"}, {"name": "StatefulPartitionedCall/model1/depthwise_conv2d_DepthwiseConv2D12/BiasAdd/ReadVariableOp", "shape": [56], "dtype": "float32"}, {"name": "StatefulPartitionedCall/model1/conv2d_Conv2D21/Conv2D/ReadVariableOp", "shape": [1, 1, 56, 16], "dtype": "float32"}, {"name": "StatefulPartitionedCall/model1/conv2d_Conv2D21/BiasAdd/ReadVariableOp", "shape": [16], "dtype": "float32"}, {"name": "StatefulPartitionedCall/model1/zero_padding2d_ZeroPadding2D14/Pad/paddings", "shape": [4, 2], "dtype": "int32"}, {"name": "StatefulPartitionedCall/model1/depthwise_conv2d_DepthwiseConv2D13/depthwise/ReadVariableOp", "shape": [3, 3, 16, 1], "dtype": "float32"}, {"name": "StatefulPartitionedCall/model1/depthwise_conv2d_DepthwiseConv2D13/BiasAdd/ReadVariableOp", "shape": [16], "dtype": "float32"}, {"name": "StatefulPartitionedCall/model1/conv2d_Conv2D22/Conv2D/ReadVariableOp", "shape": [1, 1, 16, 56], "dtype": "float32"}, {"name": "StatefulPartitionedCall/model1/conv2d_Conv2D22/BiasAdd/ReadVariableOp", "shape": [56], "dtype": "float32"}, {"name": "StatefulPartitionedCall/model1/zero_padding2d_ZeroPadding2D11/Pad/paddings", "shape": [4, 2], "dtype": "int32"}, {"name": "StatefulPartitionedCall/model1/depthwise_conv2d_DepthwiseConv2D10/depthwise/ReadVariableOp", "shape": [3, 3, 56, 1], "dtype": "float32"}, {"name": "StatefulPartitionedCall/model1/depthwise_conv2d_DepthwiseConv2D10/BiasAdd/ReadVariableOp", "shape": [56], "dtype": "float32"}, {"name": "StatefulPartitionedCall/model1/conv2d_Conv2D18/Conv2D/ReadVariableOp", "shape": [1, 1, 56, 16], "dtype": "float32"}, {"name": "StatefulPartitionedCall/model1/conv2d_Conv2D18/BiasAdd/ReadVariableOp", "shape": [16], "dtype": "float32"}, {"name": "StatefulPartitionedCall/model1/zero_padding2d_ZeroPadding2D12/Pad/paddings", "shape": [4, 2], "dtype": "int32"}, {"name": "StatefulPartitionedCall/model1/depthwise_conv2d_DepthwiseConv2D11/depthwise/ReadVariableOp", "shape": [3, 3, 16, 1], "dtype": "float32"}, {"name": "StatefulPartitionedCall/model1/depthwise_conv2d_DepthwiseConv2D11/BiasAdd/ReadVariableOp", "shape": [16], "dtype": "float32"}, {"name": "StatefulPartitionedCall/model1/conv2d_Conv2D19/Conv2D/ReadVariableOp", "shape": [1, 1, 16, 56], "dtype": "float32"}, {"name": "StatefulPartitionedCall/model1/conv2d_Conv2D19/BiasAdd/ReadVariableOp", "shape": [56], "dtype": "float32"}, {"name": "StatefulPartitionedCall/model1/zero_padding2d_ZeroPadding2D9/Pad/paddings", "shape": [4, 2], "dtype": "int32"}, {"name": "StatefulPartitionedCall/model1/depthwise_conv2d_DepthwiseConv2D8/depthwise/ReadVariableOp", "shape": [3, 3, 56, 1], "dtype": "float32"}, {"name": "StatefulPartitionedCall/model1/depthwise_conv2d_DepthwiseConv2D8/BiasAdd/ReadVariableOp", "shape": [56], "dtype": "float32"}, {"name": "StatefulPartitionedCall/model1/conv2d_Conv2D15/Conv2D/ReadVariableOp", "shape": [1, 1, 56, 16], "dtype": "float32"}, {"name": "StatefulPartitionedCall/model1/conv2d_Conv2D15/BiasAdd/ReadVariableOp", "shape": [16], "dtype": "float32"}, {"name": "StatefulPartitionedCall/model1/zero_padding2d_ZeroPadding2D10/Pad/paddings", "shape": [4, 2], "dtype": "int32"}, {"name": "StatefulPartitionedCall/model1/depthwise_conv2d_DepthwiseConv2D9/depthwise/ReadVariableOp", "shape": [3, 3, 16, 1], "dtype": "float32"}, {"name": "StatefulPartitionedCall/model1/depthwise_conv2d_DepthwiseConv2D9/BiasAdd/ReadVariableOp", "shape": [16], "dtype": "float32"}, {"name": "StatefulPartitionedCall/model1/conv2d_Conv2D16/Conv2D/ReadVariableOp", "shape": [1, 1, 16, 56], "dtype": "float32"}, {"name": "StatefulPartitionedCall/model1/conv2d_Conv2D16/BiasAdd/ReadVariableOp", "shape": [56], "dtype": "float32"}, {"name": "StatefulPartitionedCall/model1/zero_padding2d_ZeroPadding2D7/Pad/paddings", "shape": [4, 2], "dtype": "int32"}, {"name": "StatefulPartitionedCall/model1/depthwise_conv2d_DepthwiseConv2D6/depthwise/ReadVariableOp", "shape": [3, 3, 38, 1], "dtype": "float32"}, {"name": "StatefulPartitionedCall/model1/depthwise_conv2d_DepthwiseConv2D6/BiasAdd/ReadVariableOp", "shape": [38], "dtype": "float32"}, {"name": "StatefulPartitionedCall/model1/conv2d_Conv2D12/Conv2D/ReadVariableOp", "shape": [1, 1, 38, 16], "dtype": "float32"}, {"name": "StatefulPartitionedCall/model1/conv2d_Conv2D12/BiasAdd/ReadVariableOp", "shape": [16], "dtype": "float32"}, {"name": "StatefulPartitionedCall/model1/zero_padding2d_ZeroPadding2D8/Pad/paddings", "shape": [4, 2], "dtype": "int32"}, {"name": "StatefulPartitionedCall/model1/depthwise_conv2d_DepthwiseConv2D7/depthwise/ReadVariableOp", "shape": [3, 3, 16, 1], "dtype": "float32"}, {"name": "StatefulPartitionedCall/model1/depthwise_conv2d_DepthwiseConv2D7/BiasAdd/ReadVariableOp", "shape": [16], "dtype": "float32"}, {"name": "StatefulPartitionedCall/model1/conv2d_Conv2D13/Conv2D/ReadVariableOp", "shape": [1, 1, 16, 56], "dtype": "float32"}, {"name": "StatefulPartitionedCall/model1/conv2d_Conv2D13/BiasAdd/ReadVariableOp", "shape": [56], "dtype": "float32"}, {"name": "StatefulPartitionedCall/model1/zero_padding2d_ZeroPadding2D6/Pad/paddings", "shape": [4, 2], "dtype": "int32"}, {"name": "StatefulPartitionedCall/model1/depthwise_conv2d_DepthwiseConv2D5/depthwise/ReadVariableOp", "shape": [3, 3, 38, 1], "dtype": "float32"}, {"name": "StatefulPartitionedCall/model1/depthwise_conv2d_DepthwiseConv2D5/BiasAdd/ReadVariableOp", "shape": [38], "dtype": "float32"}, {"name": "StatefulPartitionedCall/model1/conv2d_Conv2D10/Conv2D/ReadVariableOp", "shape": [1, 1, 38, 38], "dtype": "float32"}, {"name": "StatefulPartitionedCall/model1/conv2d_Conv2D10/BiasAdd/ReadVariableOp", "shape": [38], "dtype": "float32"}, {"name": "StatefulPartitionedCall/model1/zero_padding2d_ZeroPadding2D5/Pad/paddings", "shape": [4, 2], "dtype": "int32"}, {"name": "StatefulPartitionedCall/model1/depthwise_conv2d_DepthwiseConv2D4/depthwise/ReadVariableOp", "shape": [3, 3, 38, 1], "dtype": "float32"}, {"name": "StatefulPartitionedCall/model1/depthwise_conv2d_DepthwiseConv2D4/BiasAdd/ReadVariableOp", "shape": [38], "dtype": "float32"}, {"name": "StatefulPartitionedCall/model1/conv2d_Conv2D8/Conv2D/ReadVariableOp", "shape": [1, 1, 38, 38], "dtype": "float32"}, {"name": "StatefulPartitionedCall/model1/conv2d_Conv2D8/BiasAdd/ReadVariableOp", "shape": [38], "dtype": "float32"}, {"name": "StatefulPartitionedCall/model1/zero_padding2d_ZeroPadding2D4/Pad/paddings", "shape": [4, 2], "dtype": "int32"}, {"name": "StatefulPartitionedCall/model1/depthwise_conv2d_DepthwiseConv2D3/depthwise/ReadVariableOp", "shape": [3, 3, 16, 1], "dtype": "float32"}, {"name": "StatefulPartitionedCall/model1/depthwise_conv2d_DepthwiseConv2D3/BiasAdd/ReadVariableOp", "shape": [16], "dtype": "float32"}, {"name": "StatefulPartitionedCall/model1/conv2d_Conv2D6/Conv2D/ReadVariableOp", "shape": [1, 1, 16, 38], "dtype": "float32"}, {"name": "StatefulPartitionedCall/model1/conv2d_Conv2D6/BiasAdd/ReadVariableOp", "shape": [38], "dtype": "float32"}, {"name": "StatefulPartitionedCall/model1/zero_padding2d_ZeroPadding2D3/Pad/paddings", "shape": [4, 2], "dtype": "int32"}, {"name": "StatefulPartitionedCall/model1/depthwise_conv2d_DepthwiseConv2D2/depthwise/ReadVariableOp", "shape": [3, 3, 16, 1], "dtype": "float32"}, {"name": "StatefulPartitionedCall/model1/depthwise_conv2d_DepthwiseConv2D2/BiasAdd/ReadVariableOp", "shape": [16], "dtype": "float32"}, {"name": "StatefulPartitionedCall/model1/conv2d_Conv2D4/Conv2D/ReadVariableOp", "shape": [1, 1, 16, 16], "dtype": "float32"}, {"name": "StatefulPartitionedCall/model1/conv2d_Conv2D4/BiasAdd/ReadVariableOp", "shape": [16], "dtype": "float32"}, {"name": "StatefulPartitionedCall/model1/zero_padding2d_ZeroPadding2D2/Pad/paddings", "shape": [4, 2], "dtype": "int32"}, {"name": "StatefulPartitionedCall/model1/depthwise_conv2d_DepthwiseConv2D1/depthwise/ReadVariableOp", "shape": [3, 3, 16, 1], "dtype": "float32"}, {"name": "StatefulPartitionedCall/model1/depthwise_conv2d_DepthwiseConv2D1/BiasAdd/ReadVariableOp", "shape": [16], "dtype": "float32"}, {"name": "StatefulPartitionedCall/model1/conv2d_Conv2D2/Conv2D/ReadVariableOp", "shape": [1, 1, 16, 16], "dtype": "float32"}, {"name": "StatefulPartitionedCall/model1/conv2d_Conv2D2/BiasAdd/ReadVariableOp", "shape": [16], "dtype": "float32"}, {"name": "StatefulPartitionedCall/model1/zero_padding2d_ZeroPadding2D1/Pad/paddings", "shape": [4, 2], "dtype": "int32"}, {"name": "StatefulPartitionedCall/model1/conv2d_Conv2D1/Conv2D/ReadVariableOp", "shape": [3, 3, 3, 16], "dtype": "float32"}, {"name": "StatefulPartitionedCall/model1/conv2d_Conv2D1/BiasAdd/ReadVariableOp", "shape": [16], "dtype": "float32"}, {"name": "StatefulPartitionedCall/model1/conv2d_Conv2D3/Conv2D/ReadVariableOp", "shape": [1, 1, 16, 16], "dtype": "float32"}, {"name": "StatefulPartitionedCall/model1/conv2d_Conv2D5/Conv2D/ReadVariableOp", "shape": [1, 1, 16, 16], "dtype": "float32"}, {"name": "StatefulPartitionedCall/model1/conv2d_Conv2D7/Conv2D/ReadVariableOp", "shape": [1, 1, 16, 38], "dtype": "float32"}, {"name": "StatefulPartitionedCall/model1/conv2d_Conv2D9/Conv2D/ReadVariableOp", "shape": [1, 1, 38, 38], "dtype": "float32"}, {"name": "StatefulPartitionedCall/model1/conv2d_Conv2D11/Conv2D/ReadVariableOp", "shape": [1, 1, 38, 38], "dtype": "float32"}, {"name": "StatefulPartitionedCall/model1/conv2d_Conv2D14/Conv2D/ReadVariableOp", "shape": [1, 1, 38, 56], "dtype": "float32"}, {"name": "StatefulPartitionedCall/model1/conv2d_Conv2D17/Conv2D/ReadVariableOp", "shape": [1, 1, 56, 56], "dtype": "float32"}, {"name": "StatefulPartitionedCall/model1/conv2d_Conv2D20/Conv2D/ReadVariableOp", "shape": [1, 1, 56, 56], "dtype": "float32"}, {"name": "StatefulPartitionedCall/model1/conv2d_Conv2D23/Conv2D/ReadVariableOp", "shape": [1, 1, 56, 56], "dtype": "float32"}, {"name": "StatefulPartitionedCall/model1/conv2d_Conv2D26/Conv2D/ReadVariableOp", "shape": [1, 1, 56, 56], "dtype": "float32"}, {"name": "StatefulPartitionedCall/model1/conv2d_Conv2D29/Conv2D/ReadVariableOp", "shape": [1, 1, 56, 56], "dtype": "float32"}, {"name": "StatefulPartitionedCall/model1/conv2d_Conv2D32/Conv2D/ReadVariableOp", "shape": [1, 1, 56, 56], "dtype": "float32"}, {"name": "StatefulPartitionedCall/model1/conv2d_Conv2D35/Conv2D/ReadVariableOp", "shape": [1, 1, 56, 56], "dtype": "float32"}, {"name": "StatefulPartitionedCall/model1/conv2d_Conv2D38/Conv2D/ReadVariableOp", "shape": [1, 1, 56, 56], "dtype": "float32"}, {"name": "StatefulPartitionedCall/model1/zero_padding2d_ZeroPadding2D28/Pad/paddings", "shape": [4, 2], "dtype": "int32"}, {"name": "StatefulPartitionedCall/model1/conv2d_Conv2D42/Conv2D/ReadVariableOp", "shape": [3, 3, 56, 18], "dtype": "float32"}, {"name": "StatefulPartitionedCall/model1/conv2d_Conv2D42/BiasAdd/ReadVariableOp", "shape": [18], "dtype": "float32"}]}]}